convolutional-neural-networks/cifar-cnn/model-cifar-augmented.pt (torch_old, 50528 bytes, 8 tensors)

conv1.weight f4 [16, 3, 3, 3]
000000 3d 00 80 be cf 0c 82 bd 25 69 d2 bd 48 ee 84 be
       -0.25000182 -0.06350099 -0.10273961 -0.25963044
000010 ab a8 3c be a1 e8 de 3d d8 0a af 3d f7 66 a3 3e
       -0.18423717 0.10884214 0.0854699 0.31914493
000020 3b 26 97 3e 47 20 98 bd 03 19 0f be 15 5f 74 bd
       0.29521355 -0.074280314 -0.13974385 -0.05966099
000030 d4 4f d7 bd 1c 26 38 be 69 ad 32 3c 20 c1 52 3e
       -0.10513273 -0.17983288 0.010905602 0.20581484
000040 fe 83 d1 3d 81 8c 9d 3d 42 e6 3e bd e1 5c c2 bd
       0.10230254 0.076928146 -0.04660631 -0.094903715
000050 f8 1b 29 bd d2 3b 0e be 12 3f d9 3c a4 73 18 3e
       -0.04128644 -0.13890007 0.026519332 0.14887863
000060 19 72 9f bd 20 ad 85 3d 06 f0 37 3e c0 e7 e2 bd
       -0.07785434 0.065271616 0.17962655 -0.11079359
000070 6b fb f9 3b a1 3a ed bd dc ed 92 3d 49 04 61 be
       0.0076288483 -0.11583448 0.07174274 -0.21974291
000080 ef 7a d6 3d 14 3a fe 3d 3b 46 9e be d5 57 5d be
       0.104726665 0.12413421 -0.30912957 -0.21615537
000090 06 cd 7c be e5 86 06 be 9a b6 24 3c 3a 9e 30 3e
       -0.24687585 -0.13137396 0.010053301 0.17247859
0000a0 ab ee 69 3d 25 4d 58 bd dc 89 cc 3d 28 1f 4b be
       0.057112377 -0.052807946 0.09987232 -0.19836104
0000b0 03 5d 2c be 2f 52 da 3d 1a 12 0e be 8e a1 e4 bd
       -0.16832356 0.106602065 -0.13874093 -0.111636266
0000c0 20 ea b7 3e d6 f0 ae 3e 49 18 cd 3e 3b 55 c1 3d
       0.3592081 0.34168118 0.4005759 0.094400845
0000d0 61 a4 dc bd c5 f9 84 3e 4e 74 1b be 4e f3 7b bd
       -0.1077354 0.2597181 -0.15181085 -0.06151133
0000e0 9c 8b 16 3e bd c3 73 3e 06 d7 7d be f0 62 3a 3e
       0.14701694 0.23805137 -0.24789056 0.18201804
0000f0 ab 5d 45 3e c0 20 80 be 11 d8 31 3c b9 3d 0d 3e
       0.19274013 -0.25024986 0.010854737 0.13793077
000100 5a 1f d6 bd 07 0e 21 3e 9b e3 b5 3e 14 ff d1 be
       -0.104551986 0.15728007 0.35525212 -0.41014922
000110 00 f2 97 bd b0 d9 26 3e 1e ea 8a be 32 dd 25 bd
       -0.07419205 0.16293979 -0.27131742 -0.04049415
000120 bb c3 e5 3d ca 0a 37 be e0 e7 b7 bd fe 83 6f 3e
       0.11218973 -0.1787521 -0.089797735 0.23390195
000130 2c 41 71 be 7d 7e 79 bd 83 6e d2 3e 25 60 24 be
       -0.23560017 -0.060911644 0.4109994 -0.16052301
000140 8e fc c2 bc 3d 7c c7 3d 50 01 61 3e dc 07 0f 3e
       -0.023802068 0.097404934 0.21973157 0.13967842
000150 38 31 5d 3c 91 c3 21 3e 0b 91 da 3b e0 81 97 3c
       0.013500504 0.15797259 0.0066701225 0.018494546
000160 26 b6 84 3d a8 50 26 be e8 c8 aa bd 9c a1 fc 3d
       0.064800546 -0.16241705 -0.08339101 0.12335512
000170 33 ac a4 bd 2f 44 af bd 57 01 90 be ed 92 a6 be
       -0.08040657 -0.08557927 -0.28126022 -0.3253397
000180 03 65 02 3d ab 19 bf bd 28 f5 91 be fa 58 eb bd
       0.031834614 -0.09331068 -0.28507352 -0.1149158
000190 af 6c a3 3d cc a1 d2 bd 8b 46 cb bd 1a fc 30 3e
       0.07979714 -0.102847666 -0.099255644 0.17283669
0001a0 21 e7 b6 bc b4 f1 ea bd 6f 3c 5a 3c 3f 32 b9 bd
       -0.022327008 -0.114718825 0.013320073 -0.09042787
0001b0 ca 65 4b be f5 d8 d5 3e 8b 8b 30 3e a2 39 4b 3e
       -0.19863048 0.41767088 0.17240731 0.19846204
0001c0 8a 7a 14 bd 66 68 77 3c fb 81 11 bb 92 92 b7 be
       -0.036249675 0.015100574 -0.0022202719 -0.35854012
0001d0 99 ab 34 be e8 25 84 be 76 71 4c 3e f8 8e 38 3e
       -0.17643584 -0.2581017 0.19965157 0.18023288
0001e0 86 b1 53 3e d8 37 c8 bd e4 40 2e 3e df 38 df bc
       0.20673189 -0.09776276 0.17016941 -0.027248798
0001f0 ac 03 8e be 18 95 7a be df c5 c1 bd a7 e6 4f 3d
       -0.27737176 -0.24470937 -0.09461569 0.050757077
000200 23 0d 8d be a7 5b 4e 3e cd 3a 20 bd d1 d1 32 3e
       -0.27549085 0.2015215 -0.039118577 0.17462851
000210 05 6d 42 bd ed 45 3f 3c 63 21 c3 3d 01 6b 14 3f
       -0.04746725 0.011674386 0.095278524 0.57975775
000220 2b 4c 59 3e aa ee 4a 3e 8d 01 5e 3e 44 65 0b 3e
       0.21220462 0.19817606 0.21680279 0.13612849
000230 f4 43 8c be 68 30 0e 3e 30 0d c9 bb 30 12 dc be
       -0.27395594 0.13885653 -0.0061356053 -0.42982626
000240 90 44 7c be f2 4e ef bd 88 3e 89 be e4 d4 82 bd
       -0.2463553 -0.116849795 -0.2680552 -0.06388262
000250 b8 98 02 39 1a be 00 3e ef e0 01 be 46 d3 7d be
       0.00012454658 0.12572518 -0.12683462 -0.24787626
000260 a6 64 8d 3e 10 1a b0 be c5 5e 1d be 20 23 d3 3d
       0.2761585 -0.34394884 -0.15368183 0.10309434
000270 46 a2 6a be a3 a5 71 be b0 df 1c 3e 30 57 ae 3c
       -0.22913465 -0.23598342 0.15319705 0.021281809
000280 9f f1 75 3e e5 6c 9a 3e c6 c7 41 be 3f e2 c5 3e
       0.24017952 0.30161205 -0.18923864 0.38649175
000290 8c eb 06 be 6b be 5f be 86 1f 98 3e 83 62 f4 bd
       -0.13175792 -0.21849982 0.2971155 -0.11932852
0002a0 b7 b9 be bd 7b f5 8b 3d 0c 03 eb 3a 81 2b 9a be
       -0.09312766 0.06833931 0.0017929985 -0.30111316
0002b0 87 61 76 3e ba 06 06 be d8 66 41 be 1f b3 dd 3e
       0.24060641 -0.13088503 -0.18886888 0.4330072
0002c0 eb 25 9f bd 55 98 09 be b8 52 f9 3d ea 92 06 3c
       -0.07770904 -0.13437016 0.121739805 0.008213738
0002d0 3c db 78 3d 35 c3 45 3e cf 65 0b be ac e4 7b be
       0.060755953 0.19312747 -0.13613056 -0.2459895
0002e0 c5 60 cd 3e ab 4f 87 be bc 8d 07 be b4 8c 14 3e
       0.40112892 -0.2642797 -0.13237661 0.14506799
0002f0 19 9e c7 ba b8 a1 63 be 79 71 1a 3e 63 ed e3 3d
       -0.0015229612 -0.2222966 0.15082349 0.11129262
000300 cf 2f fc bd 2f c3 0f 3d 6e a1 36 3e 40 be 26 be
       -0.12313806 0.03509825 0.17835018 -0.16283512
000310 75 61 b1 bd f8 2e f8 3d 43 9f 51 be f2 3d 8b 3d
       -0.086611666 0.121183336 -0.2047091 0.067989245
000320 82 1c a3 3d d3 69 9d be 4f 30 08 3e c4 e0 55 3e
       0.07964422 -0.307448 0.13299678 0.20886523
000330 55 3b ce bd 68 b4 a0 3b 16 00 04 3c af 98 5f be
       -0.100699104 0.0049043186 0.008056661 -0.21835588
000340 09 e5 82 3d 2d c1 27 3e 06 f7 75 be 73 62 08 bd
       0.06391341 0.16382284 -0.24020013 -0.033297013
000350 b7 49 46 3e 26 3c 29 be 44 12 96 3e b6 aa 8b 3c
       0.19364057 -0.16526851 0.2931081 0.017049175
000360 5c ee 6f 3e 3e f8 22 3e 21 7a 77 3e 71 06 15 3e
       0.2343077 0.1591501 0.24167682 0.14553238
000370 06 4d 26 3e d6 1d d1 bd 86 82 2e be 5a 51 60 be
       0.1624032 -0.10210769 -0.17041978 -0.21906033
000380 d2 88 ab bc 4d b5 05 3e 1e 88 98 be 0c 61 7c be
       -0.020939264 0.13057442 -0.2979135 -0.24646395
000390 35 e6 04 be 50 c8 d7 be 8b d4 bb be dc 29 6d be
       -0.12978442 -0.42145014 -0.36685595 -0.231605
0003a0 53 f3 1c be 5c 96 34 3d 82 92 07 3d ad d6 d2 3d
       -0.15327196 0.044088706 0.033098705 0.102948524
0003b0 ed d9 3b 3e 8c d9 cc 3d ac 67 3d 3e c7 4a bb 3d
       0.18344851 0.10002431 0.18496579 0.09145122
0003c0 ea b9 f9 3d 05 60 81 3d 62 ab 9c 3d 98 e0 9a be
       0.121936634 0.063171424 0.07649876 -0.30249476
0003d0 5d fd 0d be 86 05 f9 bd ea b9 86 3e 29 ab 17 be
       -0.13866182 -0.12159257 0.26313716 -0.14811386
0003e0 83 67 05 bd 50 9f b0 3d 86 5a 8a 3e 61 5c 4a 3e
       -0.03256942 0.086241364 0.2702219 0.19761802
0003f0 b7 02 8b be 7b c1 f7 3c cc 9e e1 bd e7 dd 62 3e
       -0.2715051 0.030243626 -0.11016616 0.22154962

conv1.bias f4 [16]
000000 e2 a5 a3 be b4 86 93 be 36 78 55 bd 41 97 d0 be
       -0.31962496 -0.28813708 -0.052116595 -0.40740398
000010 c5 2a 01 be f8 be f8 bd cc 5a 09 bd 10 9a 99 bd
       -0.12613972 -0.121457994 -0.033533856 -0.07500088
000020 be b3 d9 bd bd 45 bb bd ad 97 7e 3c 09 04 2d be
       -0.10629986 -0.09144161 0.015539092 -0.1689607
000030 44 4b a5 3d 45 e7 92 bd 1e 3c 12 be 44 f5 e3 bd
       0.080709964 -0.071730174 -0.14280745 -0.11130765

conv2.weight f4 [32, 16, 3, 3]
000000 98 90 8f be 50 d9 b3 bd 25 7a 8c bd 43 86 43 be
       -0.28040004 -0.087816834 -0.06859235 -0.19094186
000010 cd 08 07 be a4 cc c6 bd 17 af f9 bb 51 9c 2d 3d
       -0.13186951 -0.09707001 -0.0076197493 0.042385403
000020 b2 87 0c 3e 49 56 20 3e 8f 68 ab 3d 1a b8 99 bd
       0.13723639 0.15657915 0.08369552 -0.07505818
000030 64 73 3c bd 3a 2f bd bd 59 a9 93 bd 95 f9 8b bb
       -0.046008483 -0.092375234 -0.07210035 -0.004271696
000040 9b c2 44 be 54 d3 9a bd 82 60 f5 3c 09 3c 00 bd
       -0.19214861 -0.07559839 0.029953245 -0.031307254
000050 a8 8c 2e be 3d d5 b9 3d e8 ce b9 bd f2 c1 9c 3d
       -0.17045844 0.09073875 -0.09072667 0.0765418
000060 ee 44 81 ba fa 6f d6 bc 20 1c d1 3d 88 c3 34 3e
       -0.0009862462 -0.026176441 0.102104425 0.17652714
000070 28 6e 38 3e fc 08 5a 3d 20 a6 5d 3d c2 fd a4 bd
       0.18010771 0.053231224 0.054113507 -0.08056213
000080 c1 45 bd bd 28 3a b0 bd f3 d8 7e be 42 3c fe bd
       -0.0924182 -0.086048424 -0.24887447 -0.12413837
000090 92 a5 2c 3e 86 f9 a5 3e ec 2b 57 3d d6 de 85 3d
       0.16860035 0.32416934 0.05253212 0.06536643
0000a0 23 29 f8 bd 7e 54 cd bd 43 2c 21 bd 7d 2c 63 bd
       -0.12117221 -0.10025881 -0.039348852 -0.05546235
0000b0 d5 a9 58 3d 61 e5 a6 3e 2b ab ed 3e 14 ac c4 3e
       0.05289634 0.32596877 0.46419653 0.38412535
0000c0 b0 a4 2b 3e 87 ea 90 3e 65 f4 48 3e bf 6a 4f be
       0.16762042 0.2830393 0.19624479 -0.20255564
0000d0 db 91 69 be 01 46 e6 be 5f 45 50 be e8 e7 7d be
       -0.22809546 -0.44975284 -0.20338963 -0.24795496
0000e0 b7 9e ad bd ff 17 a3 bd 85 fb df bc f9 97 ca 3d
       -0.08477538 -0.07963561 -0.027341614 0.09892268
0000f0 41 44 7a bd c7 d6 9a 3d 98 a5 e8 3c 65 59 8d bd
       -0.06110025 0.07560497 0.028399274 -0.06901816
000100 09 9c 00 be 16 76 ad bd b2 37 4e bd 29 a0 c4 3c
       -0.12559523 -0.08469789 -0.050346084 0.024002152
000110 89 cd 32 3d 99 fa 26 3e 9b 6d 74 3d b8 91 7f 3d
       0.043653045 0.16306533 0.05967484 0.062394828
000120 8e 9d 86 3e 29 06 9c 3e 2f 37 94 3e 70 3c 31 3c
       0.2629208 0.3047345 0.28948352 0.010817632
000130 cd 28 3b 3b 3a 09 54 bd c9 5c 62 3b d9 ef f7 bd
       0.0028558255 -0.05176661 0.0034540168 -0.12106294
000140 af b2 1a 3e 0b cb 5a be 5c 69 03 be b8 4a 90 bd
       0.15107225 -0.21366517 -0.1283316 -0.070455015
000150 57 b9 ac be 35 49 ba bd 82 36 5c bc 80 eb 76 be
       -0.33735153 -0.090959944 -0.01344073 -0.24113274
000160 9e e3 b9 bd 9a 65 a8 3c 99 bc 28 3d 88 68 01 3e
       -0.09076618 0.02055626 0.041195486 0.12637532
000170 56 43 71 3d 38 67 ae bc f1 de 87 3d 36 a9 0c bd
       0.058902107 -0.021289453 0.066343196 -0.03434106
000180 f4 ff 71 ba b4 71 26 3e 7f 4d b5 3c 2a 6c a8 3b
       -0.00092315604 0.16254312 0.02213168 0.0051398473
000190 69 2f 6f bd c0 d1 4f be b8 25 a3 3d e3 44 d9 bd
       -0.058394823 -0.20294857 0.07966179 -0.10608842
0001a0 91 09 e1 bd cd 06 59 3c 73 e9 ce 3c cc e5 18 3e
       -0.10988153 0.01324625 0.025257802 0.1493141
0001b0 3e c4 9b bd c6 5f 6c 3d db ab a8 bb 77 89 5b 3d
       -0.076057896 0.057708524 -0.00514744 0.053597894
0001c0 7b ce 29 3d 37 b7 98 3d a9 6a 8f bd bb c8 44 3d
       0.04145668 0.074568205 -0.07002766 0.048042994
0001d0 74 cb f6 3d b6 4c 0a 3d 7c 63 9a 3d 37 e0 92 bd
       0.12050524 0.033764564 0.075385064 -0.07171672
0001e0 0c c3 da 3d 90 0e 9e bd e5 4b a6 bd 52 fa ed bd
       0.106817335 -0.07717621 -0.081199445 -0.116200104
0001f0 39 2f a6 be d8 87 98 bd e7 53 58 3e 87 46 d4 3d
       -0.32457903 -0.07447785 0.21125756 0.103650145
000200 b9 e9 e3 3d bf 00 76 3e 28 1a ae 3d 5e 9c c9 bd
       0.111285634 0.24023722 0.08501083 -0.09844278
000210 21 15 62 3c 3e af 80 bd 0b 21 13 be 8f bf 4b bd
       0.013798983 -0.06283425 -0.14368074 -0.04974323
000220 d7 ee 52 3e 3a ce f6 3d ee e4 0b be 54 d5 05 be
       0.20598923 0.12051053 -0.13661548 -0.1306966
000230 ca 71 cd bc 77 ae cf 39 55 4f 50 bc 39 81 64 3e
       -0.025078673 0.00039612103 -0.012714227 0.2231492
000240 3b 2b ed bc 5c 33 4c be ce 3d 1e be c5 ea 50 be
       -0.028951278 -0.19941467 -0.15453264 -0.20402057
000250 48 d7 5e be 4c 19 af be 1c 5a 3f be 1a 87 6b be
       -0.21761811 -0.34198987 -0.18686718 -0.23000756
000260 76 ee ce be a9 68 96 bd 8d a3 53 be 02 6e b1 3d
       -0.40416306 -0.07344181 -0.20667858 0.086635605
000270 c1 6a 81 3b ed d3 b6 be de c1 ae bd 05 2c df bd
       0.0039494936 -0.35708562 -0.08533071 -0.10897068
000280 ad 64 51 be 94 aa 45 3d d2 e6 8e 3d 6d 18 eb 3d
       -0.20448561 0.04825838 0.06977619 0.11479268
000290 26 95 7b 3d 50 bc b4 3d c8 08 a9 3d c1 54 bb 3d
       0.061421536 0.0882498 0.08253628 0.09147025
0002a0 42 64 96 3d 01 2c a5 bd 45 45 4b 3d a5 49 d4 3d
       0.073433414 -0.08065034 0.049626607 0.10365609
0002b0 b3 8c 81 3b 21 3e 4c be ce 9c a5 bd 32 63 a3 bd
       0.00395354 -0.19945575 -0.08086549 -0.079779044
0002c0 63 8a 47 be 16 7b 7c be 28 dc 92 be 08 17 84 be
       -0.19486384 -0.24656329 -0.2868359 -0.2579882
0002d0 47 ba aa be 12 38 d3 be 05 67 05 bf 9a 9f ba be
       -0.33345243 -0.41253716 -0.5211032 -0.3644989
0002e0 d0 32 4f be 7d 98 59 be 9b 0b f3 bd 5f 30 31 be
       -0.20234227 -0.21249576 -0.11867448 -0.17303608
0002f0 03 e6 91 3d cf e8 bb bd 0c c0 21 3c 02 6e ca 3a
       0.071239494 -0.09175264 0.009872448 0.0015444162
000300 cd 2d 9c bd fa 92 42 bc fe fd da 3c 40 9b 86 bb
       -0.07625923 -0.011875862 0.026732441 -0.0041078627
000310 e1 82 09 be 41 ce c0 bd 40 70 9d 3d ff ed 1d 3e
       -0.13428833 -0.0941434 0.076874256 0.1542282
000320 f9 57 be 3d 70 66 18 3d d6 9a c7 3c 4d 83 39 3e
       0.09294123 0.037207067 0.024365824 0.18116494
000330 be 11 c9 3d bf cc d5 3d 2b d8 b7 3d 0c bc 51 3e
       0.09817837 0.10439443 0.08976778 0.2048189
000340 ce 93 df bd ce 12 22 3e ad 41 be bc 1e fc b2 3d
       -0.109168634 0.15827486 -0.023224676 0.08739494
000350 e1 7f e0 bb f8 87 8f 3d 9a b3 38 bc bf f3 89 3d
       -0.006851182 0.07008356 -0.011273289 0.06735944
000360 03 d3 65 be 9f 72 ae be 87 1e f2 bd 59 76 ac be
       -0.22443776 -0.34071824 -0.11822229 -0.33684042
000370 7a 05 ce be ed 2f 46 be 62 fe 9d be 40 07 19 bf
       -0.40238553 -0.1935422 -0.3085814 -0.5977669
000380 49 24 28 bd 71 a7 e0 3c 4c 6c 4a bd 25 50 ec bd
       -0.04105023 0.027423592 -0.049419686 -0.11538724
000390 2b 7a ea bc 29 08 71 bd b7 ac e0 bc 4e 49 6a 3c
       -0.028622707 -0.058845673 -0.027426107 0.014299704
0003a0 21 bb 94 bc eb 9b 11 be 4b 69 01 be 77 43 94 be
       -0.018155636 -0.14219634 -0.12637822 -0.28957722
0003b0 63 5a e4 3d cc 40 b8 bb a8 ed 5c bd c3 89 92 3d
       0.111500524 -0.0056229588 -0.053937584 0.07155182
0003c0 9f 0e 7c bd 5e 5d 36 be b0 2f 71 3e 38 88 7c 3d
       -0.06153738 -0.17809054 0.23553348 0.061653346
0003d0 50 22 ef 3d 8d 4f 13 3a 97 ce 5d 3e 7d 5a d3 bd
       0.116764665 0.0005619459 0.21660839 -0.10319994
0003e0 fc f0 80 bd 2f ef 13 3d a4 c2 f7 bd bb 26 6a 3e
       -0.06295964 0.036116775 -0.12097672 0.22866337
0003f0 77 7e ec bc 68 ef d3 be 7b 78 ef bc 4e 80 77 3d
       -0.028868897 -0.4139359 -0.029232254 0.060425095

conv2.bias f4 [32]
000000 73 5e 96 be 33 37 66 3e c8 b3 6d be a9 ee a0 be
       -0.29368934 0.22481994 -0.23213112 -0.31432083
000010 5d 5a 9f 3e ba de 4c 3e a7 56 aa bd 3a 8b f5 3d
       0.3112363 0.20006838 -0.08317309 0.11989446
000020 c2 8d 52 3e b9 54 bc 3e 72 ad 87 3e a4 59 d6 3c
       0.20561889 0.36783388 0.26499516 0.02616579
000030 e0 5f 1f be 2f bb 47 3d 36 e4 04 3e 94 58 f5 3e
       -0.15563917 0.048762497 0.1297768 0.47919142
000040 4e 93 ee 3d 93 01 13 bd 71 28 37 3e 45 be 6f 3d
       0.1164919 -0.035890173 0.17886521 0.058531065
000050 89 c7 82 3e 1c 11 db 3d 6b 86 60 3c 29 e9 39 be
       0.25542858 0.10696623 0.013703923 -0.1815535
000060 33 bb c9 bd 81 a8 9f bd 47 8d e2 bd c8 a1 ca 3e
       -0.098501585 -0.077958114 -0.11062103 0.39576554
000070 3b 40 82 bc e4 34 43 be 28 3e 84 bb fa e9 18 3e
       -0.015899768 -0.19063145 -0.00403573 0.14933005

conv3.weight f4 [16, 32, 3, 3]
000000 18 63 cb bc 27 51 ca 3c b5 3c f9 3d 21 e8 ac bd
       -0.024827525 0.0246969 0.12169782 -0.084427126
000010 2c ef 0e 3e 63 4b 4f 3d 1b fe 61 be ac 3c 46 3d
       0.13958424 0.050609004 -0.2206959 0.048397705
000020 ff 06 e4 3d bc 38 4f be 72 a0 98 bd 12 fb 3e 3e
       0.11134147 -0.20236486 -0.074524775 0.18650463
000030 01 47 1e 3e ee 78 24 3e 34 a9 f8 3d 17 0b 89 3e
       0.15456773 0.16061756 0.12141648 0.26766273
000040 b6 af 87 3e 33 ca 82 bd 8e 4a 81 be 4d 23 d3 be
       0.26501244 -0.06386223 -0.25252193 -0.4123787
000050 6b 99 56 be 4d 97 f1 be cf 1d 99 be 48 66 4c be
       -0.20956962 -0.47185746 -0.29905555 -0.19960892
000060 fc b6 84 be 5f 3f 0b be 79 f6 d4 bd 00 a2 8a be
       -0.25920856 -0.13598393 -0.103985734 -0.2707672
000070 95 44 8f bd 21 d9 64 be 01 cf ea be cc d9 71 be
       -0.06995503 -0.22348453 -0.45861056 -0.23618239
000080 d9 79 32 be 49 47 a2 be 37 d5 be bd 88 e2 4b bc
       -0.17429294 -0.3169501 -0.09318011 -0.012444146
000090 d0 6a 53 bd 7f 08 80 3d 48 e8 42 3e cc 2e 7c 3d
       -0.051615536 0.062516205 0.19033921 0.061568066
0000a0 61 49 e0 3d fe 86 19 bd 0b be 84 3c 0a 8f e5 3c
       0.10951496 -0.037482254 0.0162039 0.028022308
0000b0 d0 69 e3 3d ab dc 95 3c da 68 76 bc 1a df 9d 3d
       0.111041665 0.0182937 -0.015039647 0.07708569
0000c0 e0 a2 8b 3d 2d 3d 95 bd 65 ed 9d bc 20 dc ae 3e
       0.06818175 -0.07287059 -0.019278238 0.34152317
0000d0 0d 7a 17 3e a7 08 a7 3d b5 63 54 3d 80 31 73 3d
       0.14792652 0.08155947 0.0518529 0.05937338
0000e0 a2 9b 07 3e 6b 3f ac 3d ca a7 1e bd d5 73 8e 3e
       0.13242963 0.084105335 -0.038734235 0.27822748
0000f0 e9 b0 1b 3e d1 d9 59 3e 7e c1 f9 3e d5 10 5a be
       0.15204205 0.21274497 0.48780435 -0.21295483
000100 a4 04 3d be 7b c8 f5 bc 9a 1d 81 bd 3b 46 1c 3c
       -0.18458802 -0.030002823 -0.06304474 0.009538229
000110 58 7e 13 3e a5 fe ec bd ec a6 81 bc be 7a 10 3e
       0.14403665 -0.11572007 -0.015826665 0.14109322
000120 d6 bd 99 3e 7a 4c f0 3d 19 73 1a 3e 0a 8c 0f 3e
       0.30027646 0.11733337 0.15082969 0.14018264
000130 00 16 d1 3d 78 70 31 bd c8 2a 57 3d 3f 95 03 be
       0.10209274 -0.04332015 0.052531034 -0.12849902
000140 3c 33 5d 3d b2 92 14 bd 31 df a6 3d fa e8 8b bd
       0.05400394 -0.036272712 0.08148039 -0.06831546
000150 2c 93 2c 3d 76 c3 6e 3d cc d0 1c be 28 53 db 3d
       0.04213254 0.058291875 -0.15314025 0.1070922
000160 cd b9 8b bd 78 f8 96 bd b0 f3 eb 3d f0 3b b8 3d
       -0.06822548 -0.073716104 0.11521089 0.08995807
000170 51 08 e8 3c 7e 48 48 3d a7 eb 68 3e 64 d8 82 3c
       0.028324278 0.04889726 0.22746144 0.015972324
000180 c2 94 af bd e8 2a 46 3c 23 2b 02 3e 99 9e e4 b9
       -0.08573295 0.012095191 0.12711768 -0.00043605713
000190 17 c9 ab bd 81 3a b5 3d 03 c6 b4 bd 49 fe 9d bd
       -0.08387964 0.08849049 -0.0882683 -0.07714517
0001a0 d5 a1 39 3d ae 76 7b bc e3 a8 0a bd 8d 15 cc 3c
       0.04532035 -0.01534812 -0.03385247 0.02491262
0001b0 b6 8c dc be b6 23 5e be 70 83 f0 bc 79 49 cf be
       -0.43076104 -0.2169331 -0.02935955 -0.40485743
0001c0 6a c3 43 be e0 4d bb bb 23 a0 ec be 6a 13 f7 bd
       -0.19117513 -0.0057160705 -0.46215925 -0.1206425
0001d0 05 22 ac 3d 41 85 d0 3d 49 00 04 3e 2b e7 c9 3d
       0.08404926 0.10181666 0.12890734 0.09858545
0001e0 71 90 ec bd 80 98 1f 3c 3e 1f e0 bd 27 91 94 be
       -0.115509875 0.009740949 -0.10943459 -0.29016992
0001f0 bc 20 60 be 90 b4 a1 be 7f fc ed bd 06 6d 19 be
       -0.21887487 -0.3158307 -0.116204254 -0.14982995
000200 7a 7b f2 bd 74 ed 26 3d 73 85 10 bd ce 64 05 be
       -0.118399575 0.040753797 -0.035283517 -0.13026735
000210 b1 bd d7 3d 0c 74 cc bc cc 33 f6 bd cc 14 ad 3d
       0.10534228 -0.02495768 -0.12021598 0.08451232
000220 b1 54 d8 3d a8 e9 c4 bc 85 e7 aa 3d 33 9b f7 3d
       0.105630286 -0.024037197 0.0834494 0.12090149
000230 13 8b 3f be 3d d9 05 3e 87 b3 6e bd e6 5d a3 bd
       -0.18705396 0.13071151 -0.05827668 -0.07976894
000240 72 d2 9a be de c7 86 bd 43 b8 53 be 2b d9 86 bd
       -0.30238682 -0.065810904 -0.20675759 -0.0658439
000250 3d 6d c1 3c e6 19 e4 bb 45 a6 a8 be b6 17 b6 bd
       0.02361166 -0.006961095 -0.32939354 -0.08891241
000260 be 21 1a 3e 64 41 04 3e 08 9e 89 3d 22 f5 00 3d
       0.15051934 0.1291557 0.06719595 0.031483777
000270 86 e2 71 3d 50 42 91 3d 7c 82 ff 3c 68 aa b1 be
       0.05905392 0.07092726 0.03119015 -0.34700322
000280 ab 5d f7 bd d8 e3 e2 bc a8 8b 41 be f1 73 2c bd
       -0.120784126 -0.027696535 -0.18900931 -0.042102758
000290 79 ad bc bd 6c 40 5b be b6 ed 09 be 9b 97 72 bd
       -0.09212775 -0.21411294 -0.13469586 -0.059226613
0002a0 02 c2 7e be 3a a1 26 be 8b d7 92 bc 8e ad 29 bd
       -0.24878696 -0.1627244 -0.017925045 -0.04142528
0002b0 c6 ca f1 3c ed f0 f4 bd ef b8 df bd 9c 03 0a 3e
       0.029515635 -0.119600154 -0.10923945 0.1347794
0002c0 13 fb 43 bb 50 fa 4c 3e 6d ef 78 3e 5e 31 1c 3b
       -0.002990429 0.20017362 0.24310084 0.0023833136
0002d0 4b f4 37 3e 01 f4 dc 3d c8 98 23 3e 63 3b 6f 3d
       0.17964284 0.107887276 0.1597625 0.058406245
0002e0 d9 86 cb 3b 53 08 12 bd 70 16 38 be 35 53 05 be
       0.0062111435 -0.03565247 -0.17977309 -0.13020022
0002f0 b4 a6 c0 bb 05 13 ae bd 6c 83 ca 3c 38 ab e6 3d
       -0.0058792476 -0.084997214 0.02472087 0.11263126
000300 7f aa 94 bb ec 50 e6 bc 65 df 8b 3e a1 28 0e 3d
       -0.0045369263 -0.028114758 0.27318874 0.034706715
000310 5f 5c 19 3e 04 07 2d 3e 93 78 9c bd ee 9e e5 bd
       0.14976643 0.16897207 -0.07640185 -0.11211954
000320 2d 12 7e be fd da 15 be e2 a3 ce bd 73 8c 91 ba
       -0.24811621 -0.14634319 -0.10089852 -0.0011104479
000330 3a 3c b2 3d 9f 82 d1 bd 5e b0 7e be e0 8e df bd
       0.087028936 -0.10229992 -0.24871966 -0.10915923
000340 6a 52 26 3c 91 d0 14 bc b0 f4 af be 64 84 5c be
       0.010151485 -0.009082929 -0.3436637 -0.21534878
000350 ec cd 00 3c e1 fe a5 be 65 f7 b0 bd 5b ee 45 be
       0.007861596 -0.3242102 -0.08640937 -0.19329207
000360 60 6a 32 be 19 68 c1 bd 13 fc e2 bc ec a0 9e be
       -0.17423391 -0.09443683 -0.027708089 -0.3098215
000370 81 48 c8 bd bf 96 8b bd 2c d1 5a be e6 55 8c bc
       -0.09779454 -0.06815862 -0.21368855 -0.017130803
000380 b7 09 d1 bd 5b 6f 96 3c 4e c0 50 3b 1b eb 76 3e
       -0.10206931 0.018363645 0.0031852904 0.24113123
000390 80 25 ad bd 92 78 6c be 09 8d d9 3c d5 ad 04 be
       -0.08454418 -0.23092869 0.026556509 -0.12956937
0003a0 2c 45 40 be 38 7c a5 bc 09 96 8b bd d9 cc 6a bb
       -0.18776387 -0.020200834 -0.06815726 -0.0035827665
0003b0 e6 1c 95 3d 2c 7b 89 be 63 ea 3c be 53 77 25 bd
       0.072809026 -0.26851785 -0.18448786 -0.040397
0003c0 de 26 41 be 6b a7 36 be 81 7a 44 be aa ca d5 3c
       -0.18862483 -0.17837302 -0.19187357 0.026097614
0003d0 69 52 8b bd 09 56 ff 39 bf d1 fe bd b2 db 67 be
       -0.06802828 0.0004870149 -0.1244235 -0.22642401
0003e0 da 62 ad be 3c a1 79 3e 6b c1 a6 3d 33 fd a1 bc
       -0.3386448 0.24377912 0.0814236 -0.019774055
0003f0 f7 de 4a be 5f 96 9b be a2 42 d5 3d 0f a9 36 bd
       -0.19811617 -0.30388162 0.104131 -0.04459482

conv3.bias f4 [16]
000000 74 2f a2 3e e2 90 00 bd 57 49 07 3f c3 9e f1 3d
       0.3167683 -0.03138817 0.5284628 0.117978595
000010 58 4b f7 bc 5d d4 a9 3d 51 83 f6 3e b4 2a 74 bd
       -0.030187294 0.08292458 0.4814706 -0.059611037
000020 a8 51 5f 3e 37 f4 40 3f ca 34 2d 3e 9c f1 87 3d
       0.21808493 0.7537264 0.16914669 0.0663788
000030 60 9c b0 3e de ab 47 be f4 a4 8e bd ee 88 dd 3e
       0.34494305 -0.19499156 -0.06965056 0.43268532

fc1.weight f4 [10, 256]
000000 63 f2 3b be 83 83 12 be 71 e9 9a 3d 73 1f e9 3b
       -0.18354182 -0.1430798 0.07564057 0.0071143447
000010 f5 ed ba bd 3e ae a1 bc a8 00 cc 3b 44 8a 39 bb
       -0.09127418 -0.019736405 0.006225664 -0.0028311173
000020 52 62 50 3e a7 91 5a 3e 51 67 d0 bc 9f 48 47 3d
       0.20350006 0.21344624 -0.02543989 0.04865324
000030 60 94 30 3e f1 54 c3 3d 45 8c 56 bd 6e 50 d4 3d
       0.172441 0.09537686 -0.052379865 0.10366903
000040 7e 0d b4 3d fa 98 a2 3d f5 e5 59 3d 60 63 a9 3d
       0.08791636 0.07939334 0.05319782 0.082709074
000050 b9 4c 65 bd 5c cf 00 bd da 5e 1c bd c7 14 6b bd
       -0.05598137 -0.031447753 -0.038176395 -0.05739286
000060 3b 3c 11 be 61 d9 81 bd b2 8d 02 3d 10 2a 61 bd
       -0.14183132 -0.0634029 0.031873412 -0.054971755
000070 2d 2d 1b bd 35 b2 0a 3d 82 1c 40 bc 9d 32 0a 3d
       -0.03788488 0.033861358 -0.011725547 0.033739675
000080 08 a0 16 be 33 de 84 bd 97 eb 02 be cf b7 39 be
       -0.14709485 -0.06487694 -0.12785183 -0.18136524
000090 e6 82 4c be d2 eb 02 be e8 83 ff bd a6 ae 21 be
       -0.19971809 -0.12785271 -0.12476331 -0.1578928
0000a0 30 8d f0 bc 37 0e bc bd 39 61 05 3c 9f ac 31 3d
       -0.029364198 -0.09182399 0.0081408555 0.043377515
0000b0 d5 70 d5 bd 08 ea 35 bd de f3 de 3c 2c 73 98 bd
       -0.104219116 -0.044412643 0.027215894 -0.07443842
0000c0 75 52 e2 3c 07 de 83 3d cb e0 67 3d 81 11 ff 3c
       0.02762721 0.06438833 0.056610864 0.031136276
0000d0 eb 06 d0 3c a8 3f b5 3d 98 61 81 3e 48 6a ce 3d
       0.025393924 0.08850032 0.2526977 0.10078865
0000e0 5d d7 3d bd 85 4c d1 bd 8c 2c f9 bc 8b 6a 0d 3d
       -0.046347965 -0.10219673 -0.03041675 0.034525435
0000f0 69 fe c4 3c e9 26 c2 3d 19 65 27 3e 9a 00 13 3d
       0.024047093 0.09480078 0.1634716 0.035889246
000100 a9 4d 94 3d a1 94 ff 3d 3f ea a0 3d 83 7c 9c 3c
       0.07241375 0.124795206 0.07857179 0.01910234
000110 d6 ff 16 3d 27 47 99 3e 8a c1 3f 3e f9 a7 98 3d
       0.036865078 0.29937097 0.18726173 0.07453913
000120 67 f8 c0 3c 85 b4 3b be 37 8b 12 be 69 d5 84 3d
       0.023555947 -0.18330581 -0.14310919 0.06486017
000130 23 62 89 3d a2 44 ec bd 64 c3 81 3d 6a e5 ff 3d
       0.06708171 -0.11536528 0.06336096 0.12494929
000140 e1 97 6b bd e6 b2 41 bd 67 d1 0e be 60 5f de bd
       -0.05751789 -0.04728975 -0.13947068 -0.10858035
000150 b7 70 36 3e 45 97 03 3e 82 2b 36 bd 11 0b fb bc
       0.17816435 0.12850673 -0.044475086 -0.030644925
000160 dc dc 51 bc 3a 78 4a 3e 67 41 1d 3e 9c cb f3 3b
       -0.012809005 0.19772425 0.1535698 0.0074400436
000170 c5 a3 0f be e1 b1 ee bd 58 04 25 bc b0 4e 11 3c
       -0.14027317 -0.116550215 -0.010071836 0.008868858
000180 41 85 69 bb 75 f2 6c be 6d ee 4f be f0 0e e0 bc
       -0.0035632404 -0.23139365 -0.20305796 -0.027350873
000190 ac 82 f6 39 13 35 cc bd 6e 61 5f be e3 ec 08 be
       0.00047018135 -0.099710606 -0.2181451 -0.13371615
0001a0 35 0f 56 3d eb 19 5c be 75 a4 0b be 65 71 86 3d
       0.052260596 -0.21494262 -0.13636954 0.06564597
0001b0 2a c5 e8 bd 15 64 58 be 55 06 06 be e5 e8 36 bc
       -0.11365731 -0.21131928 -0.13088353 -0.011163925
0001c0 b8 c0 03 be 8f bd 34 be 4c 6b f4 3d a0 2b 71 bd
       -0.12866485 -0.17650436 0.11934528 -0.058879495
0001d0 71 b4 03 be 61 a1 b1 bd c1 e9 c6 3d 5c 68 19 3e
       -0.12861802 -0.08673359 0.09712554 0.14981216
0001e0 05 2c 08 be e7 bc 6c 3d 7e b0 77 3c 24 be 26 bd
       -0.13298042 0.05779734 0.015117763 -0.040708676
0001f0 94 47 8c 3b 96 ce 8a 3d 98 cb f8 bc fa 31 6e be
       0.0042809937 0.067776844 -0.030370519 -0.23261252
000200 15 d4 cf bc b0 a4 6a bc dd d7 7d be 60 eb 43 be
       -0.025369683 -0.014321491 -0.24789377 -0.19132757
000210 08 14 4f 3e 30 e3 d7 3d 2e d7 c8 bd 8d 01 55 be
       0.20222485 0.105413795 -0.09806667 -0.20801373
000220 c9 53 07 bd 92 a1 f0 bc 38 95 00 bd 26 3b 99 bd
       -0.033038888 -0.029373918 -0.031392306 -0.07481985
000230 4a d9 5d be 54 af 92 bd 7e 25 1d 3e db 77 1b 3e
       -0.2166492 -0.071623474 0.15346333 0.1518244
000240 ad 7c 95 be 09 3e f3 be 06 46 15 bf b5 27 11 bf
       -0.29196683 -0.47508267 -0.5830997 -0.56701213
000250 f8 e6 a2 be fa f9 b1 be 85 50 06 bf 60 b1 69 be
       -0.3181684 -0.3476103 -0.52466613 -0.2282157
000260 45 b4 7c be 4d ed 8b be b8 35 a0 be 1b c1 51 be
       -0.24678142 -0.27329484 -0.31290984 -0.2048382
000270 30 f5 07 be a1 1f 13 be 91 54 0b be 27 31 91 bd
       -0.13277125 -0.14367534 -0.13606478 -0.07089453
000280 31 84 68 3d f6 d8 de 3d 5e 43 d6 3d 17 4b 0a 3e
       0.056766693 0.10881226 0.10462068 0.13505207
000290 cb 8f bd 3c 4b 29 69 be 32 3b 5d be 5f f5 d1 bd
       0.023139855 -0.22769658 -0.21604612 -0.10251879
0002a0 09 54 fa bc 62 a0 6e be 72 2b 32 be 4f 7c 35 be
       -0.03055765 -0.23303369 -0.17399386 -0.17723201
0002b0 5e 98 a2 bd c1 2a 76 bd e6 c5 3a bb f8 3f 1d be
       -0.07939218 -0.060099367 -0.0028499304 -0.15356433
0002c0 ed d8 f2 3d f8 31 37 3e 59 bb 9a 3d a6 34 6b bc
       0.118577816 0.17890155 0.07555265 -0.014355814
0002d0 8d d0 a0 3d b7 3f 48 3e 85 fb a1 3c db 33 ef bb
       0.07852278 0.19555555 0.019773254 -0.007299883
0002e0 83 3c 66 3e 30 79 74 3d 24 43 ff 3d 54 43 3a 3e
       0.22484021 0.059685886 0.12463978 0.18189746
0002f0 e6 d1 c3 3d 4e d7 a7 3d 68 de dd 3d 58 73 07 3d
       0.09561519 0.08195363 0.10833436 0.033068985
000300 84 01 0a 3d 0a 39 bf 3d 6c e7 41 3d 63 88 08 3c
       0.03369285 0.09337051 0.04733984 0.008333298
000310 83 ee 87 bd 46 45 fb bc 3c bb cc bc 37 99 96 3c
       -0.066372894 -0.03067268 -0.024991624 0.018383605
000320 5d 6b 53 bd dd e8 52 bd af 39 f9 bc 41 1b 1e 3d
       -0.05161606 -0.051491607 -0.030423013 0.03860021
000330 e4 a1 9b bd 63 fd 06 3d 7e d1 90 bd 68 6c 08 be
       -0.075992376 0.032956492 -0.070712075 -0.13322604
000340 9f c9 31 3d 96 ae cb 3d dd 41 c7 3d 35 c9 bf bc
       0.04340517 0.09945409 0.09729359 -0.023411373
000350 5b 8d 6d 3d a3 df 0d be 3f ce 05 be ff 22 24 be
       0.057996135 -0.13854842 -0.13066958 -0.16028975
000360 43 03 5f bd cc 97 1b be e3 bc 08 be f0 bf 78 be
       -0.05444647 -0.15194625 -0.13353305 -0.24291968
000370 cc 77 1f bb 8a f7 9c bd 12 0e 51 bd 27 bf e0 bd
       -0.002433288 -0.07664402 -0.05103881 -0.109739594
000380 76 39 06 3e 85 a5 2b bd bd a3 32 be 5f 48 2c bd
       0.13107857 -0.0419059 -0.17445274 -0.042061206
000390 61 4d 65 3d fc c1 23 bd 71 e3 b2 be 64 b5 e0 bd
       0.055981997 -0.03997992 -0.3493915 -0.109720975
0003a0 c2 3d a0 3c a3 36 53 3d 52 5a b3 bd ae d0 56 3c
       0.019560698 0.051565778 -0.087574616 0.013111277
0003b0 9d 68 2c be 7c f4 37 bd ea f7 a3 bc 5d f5 cd 3c
       -0.16836782 -0.044910893 -0.020015676 0.025141412
0003c0 16 2a ff 3a 0f 83 39 bd 7d c1 ee bc fd a3 3d 3d
       0.0019467499 -0.045291003 -0.029144997 0.04629897
0003d0 bd 8c 89 3d 0d 5f b9 3d 7c da 09 3e 0d a2 bd 3d
       0.06716297 0.090513326 0.13462251 0.09259424
0003e0 a8 88 3a 3e 83 e0 ed 3d bb c2 47 3e d4 a1 75 3e
       0.18216193 0.11615088 0.19507878 0.23987514
0003f0 6f 95 37 3d 9b df dc bd b5 d3 b0 bd 27 90 51 3c
       0.044820245 -0.10784837 -0.0863413 0.012790716

fc1.bias f4 [10]
000000 b7 08 ae bd a0 c0 7e be af eb 36 be 60 fa 8c 3e
       -0.08497756 -0.24878168 -0.17863344 0.2753477
000010 01 cb c4 3d 5d ad e5 3d d4 0b 1d 3e bf eb cb bd
       0.096090324 0.11214707 0.15336543 -0.099570744
000020 61 ed 18 3e bc 87 44 bd
       0.14934303 -0.04798101
