convolutional-neural-networks/cifar-cnn/model_cifar.pt (torch_old, 50528 bytes, 8 tensors)

conv1.weight f4 [16, 3, 3, 3]
-0.122777745 0.067097105 -0.090926856 -0.091614276 0.08008281 0.074300475 0.07898623 0.028217433
-0.044329796 0.30113015 0.12819552 -0.16048743 -0.35797986 -0.16476597 0.19783163 0.09472852
-0.3575095 -0.009004684 0.17051724 0.39108405 -0.0054564336 -0.021864323 -0.012025602 0.26729247
-0.29303557 -0.27205214 0.045430824 -0.014313096 -0.24185544 0.09408962 -0.2903742 -0.0091339685
0.24376285 0.16622947 0.1589469 -0.062479984 0.09978854 -0.32863665 0.052712075 -0.25217056
0.16703469 -0.02435198 -0.16502434 0.060055107 -0.07539619 -0.17349936 -0.12985152 0.023952294
-0.051419314 0.2875714 0.29935998 0.30348155 0.36180234 0.006237903 0.55363923 0.155399
0.03893496 -0.05002837 -0.17677735 -0.10083491 -0.18539152 -0.051249254 -0.10616882 0.23965
-0.23277384 -0.06766959 -0.23515166 -0.3268748 -0.005901744 -0.08975459 -0.1328071 0.14151905
0.17620295 -0.08033005 0.0029636966 0.02587429 -0.24970484 -0.0571518 0.10385334 0.07052343
0.39583993 -0.26660946 -0.325985 -0.18252133 0.21386345 -0.074559845 -0.14557151 0.115416214
0.2782943 0.41264513 0.022389216 -0.18102263 -0.23142067 0.08861533 -0.034907497 0.049419414
0.010196616 0.1690693 0.09039516 -0.1358455 -0.09695425 -0.02850835 0.05801788 0.12017094
-0.03155703 -0.05104946 0.059605528 0.15629439 -0.037214436 0.017442903 -0.12105158 -0.29577592
0.012618006 -0.13045639 0.05070801 -0.0187003 -0.1847299 0.20291758 0.28070167 0.004344608
-0.06768746 -0.0055769486 0.32129213 0.15256861 0.34914878 0.10572954 -0.049196973 -0.08644979
-0.05437883 -0.104789265 -0.07166974 -0.020942554 0.084440306 -0.22702233 -0.1225124 0.03138476
-0.25254503 0.28736767 0.080905735 -0.12666 0.1022465 0.21420781 -0.097220846 -0.13334472
0.069166996 0.015754685 -0.12928522 0.25816366 -0.21303442 -0.28073433 0.24787049 -0.14768584
-0.23817472 0.067128405 -0.23313574 -0.12695448 0.34433544 -0.17392679 -0.08664398 0.06876028
0.19594552 -0.17816772 0.23770897 0.22309925 0.24771465 -0.21053793 -0.29897004 0.085436985
-0.14037932 0.046430353 -0.09224886 0.17917512 0.17575707 0.27241418 -0.3433854 -0.21804765
-0.18875517 -0.018591857 0.010183628 -0.080165744 -0.05626772 0.01804844 0.003772564 -0.17514563
-0.092961416 -0.05827589 0.39638844 0.15846717 -0.0007226128 0.0926993 0.12051757 -0.31130004
0.18144746 -0.4546426 0.07369915 0.0474744 -0.018346393 0.2005224 0.22703208 0.20653209
-0.15215582 0.11489698 -0.4138091 0.17393956 -0.24143465 -0.16894025 0.3297705 0.046927996
0.16309908 -0.17858292 -0.02962975 -0.34905067 0.113778204 -0.03481997 -0.07271793 0.24234873
-0.28722256 -0.00055133103 0.26446056 0.25585577 0.2534267 -0.2118488 0.04424915 -0.12702641
-0.09078302 -0.023156788 0.08653091 0.28952166 0.20720191 0.29123813 -0.18862906 -0.111154884
-0.36212733 -0.23448323 -0.037280075 0.19594978 0.08987404 0.1436974 0.08419431 -0.015039889
-0.045193378 -0.18563092 -0.17172155 -0.1011785 0.2499274 -0.14438777 -0.06283912 0.39404905
-0.33792534 -0.3026062 0.3736792 -0.05910805 -0.08596671 -0.047186065 0.08067128 -0.124264665
00000000: e672 fbbd 356a 893d dc37 babd 44a0 bbbd
00000010: 7502 a43d d92a 983d 88c3 a13d 3f28 e73c
00000020: 2993 35bd bb2d 9a3e b045 033e d156 24be
00000030: 2349 b7be 69b8 28be 6094 4a3e 0701 c23d
00000040: 7c0b b7be 6288 13bc 129c 2e3e 2b3c c83e
00000050: e2cb b2bb cf1c b3bc 0807 45bc 8fda 883e
00000060: c208 96be 6b4a 8bbe ac15 3a3d 7a81 6abc
00000070: f4a8 77be 0fb2 c03d edab 94be a4a6 15bc
00000080: f89c 793e 0f38 2a3e fac2 223e 03eb 7fbd
00000090: ef5d cc3d 1043 a8be 9ee8 573d 801c 81be
000000a0: 240b 2b3e ce7d c7bc 24fc 28be 58fc 753d
000000b0: 5169 9abd d1a9 31be ccf7 04be 9a37 c43c
000000c0: 0f9d 52bd 8f3c 933e b645 993e ef61 9b3e
000000d0: 283e b93e 5367 cc3b 4dbb 0d3f ea20 1f3e
000000e0: 447a 1f3d 8cea 4cbd 1f05 35be 8982 cebd
000000f0: 46d7 3dbe bdea 51bd 0a6f d9bd cf66 753e
00000100: 445c 6ebe 5b96 8abd 99cb 70be 225c a7be
00000110: 6b63 c1bb 41d1 b7bd 96fe 07be 5fea 103e
00000120: 8c6e 343e 1584 a4bd 943a 423b 52f6 d33c
00000130: a0b2 7fbe 0118 6abd 0fb1 d43d 976e 903d
00000140: 88ab ca3e 0981 88be 82e7 a6be dfe6 3abe
00000150: 05ff 5a3e d5b2 98bd b310 15be 565f ec3d
00000160: 977c 8e3e 3946 d33e 9769 b73c ff5d 39be
00000170: 8af9 6cbe f47b b53d 2afb 0ebd 036c 4a3d
00000180: b50f 273c 8120 2d3e 1921 b93d 151b 0bbe
00000190: f38f c6bd 588a e9bc 28a4 6d3d 2f1c f63d
000001a0: f241 01bd 3d19 51bd ed24 743d a30b 203e
000001b0: 2a6e 18bd 6be4 8e3c e4e9 f7bd f16f 97be
000001c0: c1bb 4e3c 5c96 05be 34b3 4f3d 5f31 99bc
000001d0: d629 3dbe a0c9 4f3e 21b8 8f3e 375d 8e3b
000001e0: b99f 8abd d6be b6bb 6780 a43e f23a 1c3e
000001f0: a1c3 b23e bb88 d83d c482 49bd 960c b1bd
00000200: 56bc 5ebd c19b d6bd 96c7 92bd b88f abbc
00000210: 0aef ac3d 8b78 68be c8e7 fabd 4e8d 003d
00000220: 954d 81be db21 933e e8b1 a53d 29b3 01be
00000230: 9d66 d13d 4b59 5b3e b91b c7bd 858b 08be
00000240: 6da7 8d3d f80f 813c 5863 04be 072e 843e
00000250: b225 5abe 69bc 8fbe c3d1 7d3e f53a 17be
00000260: 13e4 73be 9e7a 893d 23bb 6ebe 5b00 02be
00000270: bc4c b03e dd19 32be 6672 b1bd 31d2 8c3d
00000280: f1a5 483e 9971 36be fb69 733e 2174 643e
00000290: e9a8 7d3e 4197 57be 9a12 99be 96f9 ae3d
000002a0: 99bf 0fbe c12d 3e3d f8ec bcbd af79 373e
000002b0: a9f9 333e df79 8b3e 36d0 afbe e247 5fbe
000002c0: 0949 41be f34d 98bc 3bd9 263c f02d a4bd
000002d0: fb78 66bd 52da 933c 1f3d 773b 6059 33be
000002e0: 8e62 bebd b3b2 6ebd 6df3 ca3e 3845 223e
000002f0: b96d 3dba 21d9 bd3d ead1 f63d b862 9fbe
00000300: 5dcd 393e eac6 e8be 94ef 963d 8474 423d
00000310: 2d4b 96bc be55 4d3e 197b 683e 267d 533e
00000320: bcce 1bbe 1c4f eb3d c9de d3be 361d 323e
00000330: a53a 77be acfe 2cbe aed7 a83e 9237 403d
00000340: 7203 273e 71de 36be 17ba f2bc c5b6 b2be
00000350: 8c04 e93d 639f 0ebd 23ed 94bd 442a 783e
00000360: d60e 93be 3387 10ba 6067 873e 87ff 823e
00000370: 25c1 813e e4ee 58be 993e 353d 3613 02be
00000380: 73ec b9bd 4eb3 bdbc 1e37 b13d 2f3c 943e
00000390: bd2c 543e 2a1d 953e fa27 41be 2ca5 e3bd
000003a0: c168 b9be 5f1c 70be feb2 18bd 0fa7 483e
000003b0: e10f b83d 6925 133e 116e ac3d de69 76bc
000003c0: b11c 39bd 0816 3ebe c6d7 2fbe ac36 cfbd
000003d0: f8ec 7f3e 63da 13be ccb1 80bd ccc0 c93e
000003e0: 8d04 adbe 33ef 9abe e152 bf3e 481b 72bd
000003f0: 500f b0bd 2d46 41bd fc36 a53d 797e febd

conv1.bias f4 [16]
-0.2246305 -0.26721728 -0.13853909 -0.09451305 -0.04784469 -0.16021599 -0.0769298 -0.100225985
-0.14648393 -0.048249565 -0.0420668 -0.08128845 0.09744288 -0.17245507 -0.2670078 -0.070229135
00000000: 8a05 66be b4d0 88be 31dd 0dbe 0f90 c1bd
00000010: cbf8 43bd a90f 24be 5f8d 9dbd 4843 cdbd
00000020: e2ff 15be 56a1 45bd 3d4e 2cbd 8f7a a6bd
00000030: 2290 c73d 1098 30be 3fb5 88be 4bd4 8fbd

conv2.weight f4 [32, 16, 3, 3]
-0.23327082 -0.20393029 -0.25597075 -0.12427828 -0.17168397 -0.21630932 -0.08294046 -0.3583035
-0.19103512 -0.32086456 -0.14418852 -0.11668051 -0.2363876 -0.14603563 -0.16659051 -0.3026809
-0.09856562 -0.325709 0.12807181 -0.09758442 -0.28132772 -0.043788172 -0.27384245 -0.31793806
-0.05749457 -0.41053054 -0.46175736 -0.0089124665 0.0067186262 0.07873675 0.020715455 -0.032661673
-0.02973436 -0.04933907 -0.04090336 -0.07566331 -0.09751491 0.015511028 0.031035015 0.012743248
0.09528823 0.083658725 0.12673847 0.14420107 0.04234482 0.20189776 -0.05331663 -0.1006644
0.17045076 -0.34398353 -0.26845858 -0.018815015 -0.40215412 -0.4467057 -0.27968556 -0.039852504
-0.114951976 -0.44509846 -0.20277275 -0.1401133 -0.33077157 -0.0036426147 -0.042140823 0.056141697
-0.13624173 -0.19167095 0.12789312 -0.16482037 -0.107664816 0.011150827 -0.028154403 -0.045792226
-0.2715136 -0.3292 -0.31938347 -0.39992717 -0.18686944 -0.34125137 -0.3458166 -0.3595791
-0.30899817 -0.03883769 0.13089404 0.07344125 0.11953599 0.14275333 0.03464975 0.042665616
0.047697052 -0.0011177586 -0.12971765 0.05138814 0.032388803 -0.03847466 0.054472085 -0.018985525
0.051323373 -0.119771585 0.025536822 0.33093145 0.020158803 0.00905989 -0.03212482 0.08199479
0.1560765 0.14077528 0.009555031 0.072162986 0.008518943 0.097117245 0.054134756 -0.043506484
0.11570821 0.10552519 0.096303314 0.093156 0.07319945 -0.3250246 -0.12789537 -0.19461282
-0.25773093 -0.13558656 -0.11651328 -0.21106967 -0.13981773 -0.07134094 0.2840592 0.20468894
0.20844054 0.2555414 -0.0278151 -0.09777113 -0.06111082 -0.27404281 -0.45812058 -0.28899994
-0.20575811 -0.17995751 -0.03346704 -0.17553416 0.027793817 0.013406637 -0.030502276 0.061972074
0.09219538 0.03510797 0.023488957 0.23309833 -0.03433128 0.009775252 -0.18246645 -0.018682774
-0.16542067 0.061040938 -0.020529494 -0.050341435 0.0638599 0.043840285 0.06056776 -0.11547038
-0.04142661 -0.15202776 0.072051905 0.17801529 0.10819762 0.15429808 0.05512936 0.04384472
-0.29883364 -0.12474213 -0.025323655 -0.15113981 -0.3284932 -0.30235186 -0.057691738 0.037333123
0.024310123 0.028216152 -0.0037003946 0.07881243 -0.18542273 -0.06146196 -0.16650541 0.04293034
0.09770154 0.043039825 0.026752342 0.0032316842 -0.046827275 0.037103895 -0.124252304 -0.22543731
0.022883719 -0.16268808 -0.13338502 -0.014355235 -0.07638369 -0.2212735 0.25098515 -0.061741468
0.23285735 -0.050557192 0.058111 0.08567925 -0.099105686 0.1383438 0.060272887 -0.3529085
-0.21302317 -0.18246707 -0.16469496 -0.2955636 -0.28951016 -0.32668 -0.14332284 -0.15431283
0.20717388 0.029794767 0.105477326 -0.034560837 0.10204666 0.14363001 -0.14248812 0.015259179
-0.10351802 -0.21481137 0.02488314 -0.2904636 -0.64281416 -0.4138723 -0.70629305 -0.40397042
-0.33542645 -0.4911357 -0.1272202 -0.13890922 -0.33954275 -0.32735398 -0.28308782 -0.3993948
-0.09801059 -0.045960728 -0.2277776 -0.18582933 -0.12997931 -0.19099756 -0.37159157 -0.34670988
-0.37313837 -0.19347426 -0.27607998 -0.30776155 -0.06463024 0.004858113 -0.047118127 0.06708677
00000000: 8cde 6ebe 1ad3 50be 990e 83be 9c85 febd
00000010: eccd 2fbe 3180 5dbe b0dc a9bd 8e73 b7be
00000020: b69e 43be 5c48 a4be 28a6 13be 31f6 eebd
00000030: 970f 72be 5d8a 15be b496 2abe fef8 9abe
00000040: c6dc c9bd 54c3 a6be 4225 033e 57da c7bd
00000050: 300a 90be 3a5b 33bd 1435 8cbe c7c8 a2be
00000060: 6d7f 6bbd 0f31 d2be 766b ecbe 9805 12bc
00000070: ec27 dc3b bc40 a13d 75b3 a93c 3fc8 05bd
00000080: 7995 f3bc c417 4abd 488a 27bd 5ef5 9abd
00000090: e6b5 c7bd f721 7e3c 253d fe3c 0ec9 503c
000000a0: 7a26 c33d 4455 ab3d bbc7 013e 72a9 133e
000000b0: c371 2d3d 49be 4e3e 8a62 5abd 2329 cebd
000000c0: a58a 2e3e 9c1e b0be 6773 89be f221 9abc
000000d0: 25e7 cdbe 9cb6 e4be f232 8fbe 613c 23bd
000000e0: f16b ebbd f2e3 e3be a9a3 4fbe dc79 0fbe
000000f0: e45a a9be efb8 6ebb db9b 2cbd d6f4 653d
00000100: f482 0bbe 6445 44be 6af6 023e acc6 28be
00000110: 5f7f dcbd f5b1 363c 10a4 e6bc a190 3bbd
00000120: d503 8bbe e78c a8be 3b86 a3be 41c3 ccbe
00000130: b45a 3fbe 80b8 aebe e00e b1be c01a b8be
00000140: 0235 9ebe 4514 1fbd 1609 063e 5e68 963d
00000150: 49cf f43d ee2d 123e e5ec 0d3d 24c2 2e3d
00000160: fc5d 433d c181 92ba b4d4 04be 5f7c 523d
00000170: 1faa 043d 9b97 1dbd 1f1e 5f3d 8887 9bbc
00000180: 7538 523d ce4a f5bd 9932 d13c d96f a93e
00000190: 1324 a53c ef6f 143c 5195 03bd e2ec a73d
000001a0: 85d2 1f3e 6527 103e b48c 1c3c 30ca 933d
000001b0: 0993 0b3c 68e5 c63d 68bc 5d3d db33 32bd
000001c0: 6df8 ec3d 971d d83d ac3a c53d 93c8 be3d
000001d0: 98e9 953d a069 a6be 01f7 02be 9548 47be
000001e0: 4ff5 83be 34d7 0abe 849e eebd a622 58be
000001f0: 612c 0fbe 331b 92bd 3570 913e fa99 513e
00000200: 7071 553e 53d6 823e 7edc e3bc 3b3c c8bd
00000210: 574f 7abd 574f 8cbe c88e eabe cdf7 93be
00000220: 41b2 52be c846 38be bc14 09bd 3abf 33be
00000230: dcaf e33c 83a7 5b3c e9df f9bc 6ed6 7d3d
00000240: eed0 bc3d 60cd 0f3d ea6b c03c 54b1 6e3e
00000250: f59e 0cbd 6128 203c 7cd8 3abe 9e0c 99bc
00000260: 0964 29be 1006 7a3d 782d a8bc d232 4ebd
00000270: fbc8 823d df91 333d e615 783d bc7b ecbd
00000280: f3ae 29bd 2aad 1bbe f38f 933d a449 363e
00000290: b796 dd3d 5100 1e3e 53cf 613d 8596 333d
000002a0: b900 99be cd78 ffbd 8e73 cfbc 65c4 1abe
000002b0: 4330 a8be ddcd 9abe 2c4e 6cbd 9eea 183d
000002c0: 0626 c73c 8f25 e73c 5282 72bb 6968 a13d
000002d0: 75df 3dbe 89bf 7bbd 6580 2abe b9d7 2f3d
000002e0: bf17 c83d 874a 303d ba27 db3c aaca 533b
000002f0: f5cd 3fbd 41fa 173d fe77 febd 0ad9 66be
00000300: a376 bb3c b497 26be 1596 08be 3832 6bbc
00000310: 0d6f 9cbd 8595 62be 2081 803e 9fe4 7cbd
00000320: 2872 6e3e 0f15 4fbd cd05 6e3d 9a78 af3d
00000330: ecf7 cabd ffa9 0d3e b4e0 763d 6cb0 b4be
00000340: bf22 5abe a6d8 3abe cca5 28be 1d54 97be
00000350: ad3a 94be 9a42 a7be 39c3 12be 2f04 1ebe
00000360: 6425 543e 2814 f43c 7f04 d83d aa8f 0dbd
00000370: d7fd d03d bf13 133e 68e8 11be a301 7a3c
00000380: 4101 d4bd 83f7 5bbe bad7 cb3c a5b7 94be
00000390: 788f 24bf 12e7 d3be 9fcf 34bf 36d5 cebe
000003a0: 04bd abbe 2376 fbbe 0346 02be 383e 0ebe
000003b0: 8cd8 adbe f19a a7be e3f0 90be 7a7d ccbe
000003c0: c7b9 c8bd 5141 3cbd 883e 69be 0b4a 3ebe
000003d0: 4c19 05be dd94 43be 4041 bebe f583 b1be
000003e0: fe0b bfbe 1e1e 46be 5b5a 8dbe ec92 9dbe
000003f0: dc5c 84bd ce30 9f3b f0fe 40bd ca64 893d

conv2.bias f4 [32]
0.23511805 0.38044125 0.27770114 0.085854694 0.110183 -0.028945683 -0.036406685 0.35560033
0.004542686 -0.06801432 -0.22753352 0.13782476 0.17636739 -0.28861052 -0.10761106 0.03378314
-0.35686746 0.26524654 0.13325652 -0.21972705 0.046545804 0.007833173 0.30460593 0.019662654
-0.077837855 -0.29246545 0.03439321 -0.0375622 0.07955627 0.064370364 -0.26720208 0.05860744
00000000: c9c2 703e 32c9 c23e d82e 8e3e 96d4 af3d
00000010: a0a7 e13d 7f1f edbc 2d1f 15bd 3f11 b63e
00000020: d0da 943b 184b 8bbd 8cfe 68be ef21 0d3e
00000030: a799 343e c2c4 93be 3063 dcbd 3160 0a3d
00000040: 55b7 b6be 65ce 873e 6674 083e 2100 61be
00000050: d0a6 3e3d b556 003c 4ff5 9b3e 9313 a13c
00000060: 7469 9fbd 08be 95be e5df 0c3d d2da 19bd
00000070: 66ee a23d 9cd4 833d b6ce 88be 5b0e 703d

conv3.weight f4 [16, 32, 3, 3]
-0.19378366 -0.4291102 0.066693425 -0.080947384 0.009798076 0.30516613 0.020336716 0.035250608
0.10319853 -0.107439466 -0.35484904 -0.26271102 -0.07059805 -0.58131987 0.017408429 -0.10514857
-0.6647932 0.21793976 -0.16949293 -0.36714107 -0.09748018 -2.7747126e-06 -0.22654115 -0.07296935
0.10821729 0.053047683 0.1741263 0.0047868825 -0.22741802 -0.13819383 -0.050708614 -0.16675004
-0.0007892041 0.17968059 0.045493215 0.15692438 -0.27175206 -0.50531393 -0.03138024 -0.12417227
-0.24945481 0.06619731 -0.062313825 -0.05338044 0.098025426 -0.29451942 -0.1406895 0.053443912
-0.120341934 -0.29571033 -0.08081098 0.11587304 -0.086263664 0.03264849 -0.17518833 -0.25801915
-0.119976655 0.10415058 0.11441954 0.11509655 0.0072795097 0.11538043 0.022480967 -0.0663349
-0.40366608 0.04341618 0.33692703 -0.12660676 -0.10901283 0.33201602 0.38558498 0.27672988
-0.2612101 0.047777314 0.09678444 -0.03670747 0.04845032 0.094355166 -0.052340917 0.004058338
-0.11295711 0.17362374 0.070049785 0.18501897 0.2101126 -0.14159977 0.47040495 -0.024516137
-0.13376138 0.30225152 0.1362947 -0.109356225 -0.06916932 0.019552335 -0.07982241 0.06563353
-0.12616405 0.051722802 0.03088481 0.22056943 0.09292089 0.112071514 -0.32773727 -0.5438325
0.18441893 -0.05234874 -0.15515305 -0.045121163 0.24095397 0.2373982 0.32763925 -0.067871116
-0.42755726 -0.02432099 0.09085574 -0.19636852 -0.25424168 0.065019235 0.22074845 0.24739683
-0.04424051 -0.021101845 0.13400427 -0.07031047 -0.17557442 -0.028258609 0.13081467 0.12440661
-0.05453501 -0.040314075 0.055527654 0.0024641748 -0.3237859 -0.13891958 -0.046698395 0.00041263853
-0.13408409 -0.28347442 0.093693964 -0.0823525 0.022200596 0.1078406 -0.0024195646 0.05231197
0.07714533 0.14563058 -0.031865012 -0.02272486 0.06936537 0.011953863 0.033528805 -0.05456492
0.008763013 -0.001996461 -0.18871754 0.019893045 -0.263482 -0.5168913 0.14715101 0.050445575
-0.15974301 0.27347016 -0.14106113 -0.110355236 0.011474196 -0.06095798 -0.12137411 -0.037418462
0.15216176 0.018623969 -0.3331638 0.111084275 -0.012234201 0.015106403 0.092730165 0.060039364
0.14996564 0.06314506 0.08406828 0.16090938 0.06562878 0.018296337 0.15865652 0.0050251884
0.060547274 0.19822568 0.15180014 0.16078566 0.15237027 -0.136673 -0.24529783 -0.09874135
-0.039317578 -0.31704077 0.06624233 0.06855743 -0.27534238 0.19001557 -0.38435546 -0.38923004
0.14152949 -0.5552437 -0.515949 0.126783 -0.08107149 -0.2111076 0.19756395 0.11066528
-0.07694524 -0.12339905 0.06915969 -0.016247997 0.068717584 0.09185033 -0.0032690575 0.11567159
-0.020620016 -0.22843157 -0.0017619628 0.11819997 0.058897752 0.06031822 0.117174625 -0.060647722
-0.026466902 0.0065871743 -0.05265951 0.0296867 0.09668315 0.24096206 -0.1226506 0.012845804
0.014842852 -0.08682137 -0.05760403 -0.39150542 -0.34612706 0.026268186 -0.057234112 -0.12443921
0.038739897 0.016416825 -0.037774473 -0.050846193 -0.19149292 -0.26456502 -0.1353099 -0.02703246
0.06564153 -0.14684966 -0.07431653 0.19008742 0.18509361 0.080120094 0.04940536 -0.0216366
00000000: 396f 46be 55b4 dbbe 9096 883d bec7 a5bd
00000010: 1c88 203c bc3e 9c3e 2f99 a63c f162 103d
00000020: c059 d33d 3909 dcbd c6ae b5be 0f82 86be
00000030: b695 90bd 61d1 14bf 1f9c 8e3c 2258 d7bd
00000040: e32f 2abf 9a2b 5f3e 8e8f 2dbe eaf9 bbbe
00000050: b0a3 c7bd 3335 3ab6 67fa 67be f470 95bd
00000060: 07a1 dd3d 8748 593d 2a4e 323e 48db 9c3b
00000070: 45e0 68be af82 0dbe d6b3 4fbd 86c0 2abe
00000080: 97e2 4eba 30fe 373e 1857 3a3d c9b0 203e
00000090: 1623 8bbe 415c 01bf 9188 00bd 084e febd
000000a0: 1571 7fbe 7592 873d c83c 7fbd 73a5 5abd
000000b0: 8ec1 c83d 40cb 96be e910 10be 01e8 5a3d
000000c0: d575 f6bd 5867 97be 3a80 a5bd d84e ed3d
000000d0: 01ab b0bd 6cba 053d 9264 33be 161b 84be
000000e0: 52b6 f5bd e64c d53d cb54 ea3d bdb7 eb3d
000000f0: f488 ee3b 934c ec3d 012a b83c 98da 87bd
00000100: 52ad cebe 2ad5 313d b381 ac3e 34a5 01be
00000110: 1e42 dfbd 01fe a93e 656b c53e 8aaf 8d3e
00000120: 55bd 85be 25b2 433d ec36 c63d 925a 16bd
00000130: d873 463d 483d c13d 6e63 56bd cefb 843b
00000140: 0f56 e7bd 6cca 313e 4376 8f3d 9d75 3d3e
00000150: c227 573e 88ff 10be ebd8 f03e 11d6 c8bc
00000160: bef8 08be b6c0 9a3e d690 0b3e 28f6 dfbd
00000170: a5a8 8dbd 382c a03c ef79 a3bd df6a 863d
00000180: 2631 01be 4adb 533d 2402 fd3c f4dc 613e
00000190: 4f4d be3d c085 e53d 2ecd a7be 9b38 0bbf
000001a0: 51d8 3c3e a26b 56bd 71e0 1ebe f8d0 38bd
000001b0: a3bc 763e 8418 733e 55c0 a73e 0300 8bbd
000001c0: c9e8 dabe d03c c7bc 9312 ba3d d414 49be
000001d0: f72b 82be ce28 853d e20b 623e 9855 7d3e
000001e0: 8935 35bd c7dd acbc 6a38 093e f0fe 8fbd
000001f0: c8c9 33be 997e e7bc 48f4 053e e5c8 fe3d
00000200: 1a60 5fbd 5f20 25bd f770 633d fe7d 213b
00000210: 44c7 a5be ef40 0ebe d146 3fbd 6857 d839
00000220: 574d 09be 8f23 91be 9fe2 bf3d 6da8 a8bd
00000230: 06de b53c 88db dc3d 8f91 1ebb 1445 563d
00000240: 5ffe 9d3d 2f20 153e e384 02bd 7c29 babc
00000250: 6e0f 8e3d 23da 433c 8055 093d 777f 5fbd
00000260: be92 0f3c 0fd7 02bb 2c3f 41be bdf6 a23c
00000270: 1de7 86be fd52 04bf c1ae 163e 05a0 4e3d
00000280: ac93 23be 4804 8c3e 5472 10be ed01 e2bd
00000290: 44fe 3b3c 13af 79bd fd92 f8bd 1a44 19bd
000002a0: 4bd0 1b3e 4b91 983c 7294 aabe 2780 e33d
000002b0: f571 48bc d980 773c 50e9 bd3d d6eb 753d
000002c0: 9890 193e 3252 813d fe2b ac3d 6ec5 243e
000002d0: 6268 863d 33e2 953c db76 223e 56aa a43b
000002e0: 6b00 783d acfb 4a3e 7f71 1b3e ffa4 243e
000002f0: f406 1c3e 02f4 0bbe 5b2f 7bbe e838 cabd
00000300: 780b 21bd 2b53 a2be 0faa 873d d667 8c3d
00000310: adf9 8cbe 7193 423e 3dca c4be 2949 c7be
00000320: 1bed 103e 7324 0ebf 3c15 04bf 67d3 013e
00000330: cf08 a6bd 972c 58be 344e 4a3e 7aa4 e23d
00000340: 7795 9dbd a4b8 fcbd 98a3 8d3d 851a 85bc
00000350: cebb 8c3d 071c bc3d af3d 56bb 3ae5 ec3d
00000360: 4feb a8bc f7e9 69be a9f1 e6ba d312 f23d
00000370: c53e 713d 3d10 773d 40f9 ef3d bf69 78bd
00000380: 1ed1 d8bc 39d9 d73b 80b1 57bd 8631 f33c
00000390: d101 c63d c2be 763e 3d30 fbbd 3577 523c
000003a0: 6f2f 733c 67cf b1bd 34f2 6bbd 6673 c8be
000003b0: 9137 b1be 6130 d73c 516e 6abd fcd9 febd
000003c0: baad 1e3d 947c 863c 68b9 1abd 1944 50bd
000003d0: b816 44be 1175 87be ae8e 0abe 2d73 ddbc
000003e0: 116f 863d c25f 16be 4433 98bd 47a6 423e
000003f0: 2e89 3d3e 0116 a43d 465d 4a3d 3d3f b1bc

conv3.bias f4 [16]
-0.09401571 0.06309118 0.48654428 0.7643573 0.1290772 0.5025799 0.019357646 -0.0029383167
0.06127525 0.3336269 0.02865465 -0.025811648 -0.11922711 0.37141088 0.21540853 0.35546154
00000000: 4f8b c0bd f335 813d 551c f93e ecac 433f
00000010: d02c 043e 14a9 003f ed93 9e3c c690 40bb
00000020: c2fb 7a3d 25d1 aa3e 28bd ea3c f372 d3bc
00000030: 582d f4bd 9129 be3e 0e94 5c3e 0eff b53e

fc1.weight f4 [10, 256]
-0.2002258 -0.075063154 -0.18480162 -0.368019 0.13370591 0.010819394 -0.010797914 -0.017383337
-0.12702118 0.0008234911 -0.030117571 -0.17039408 -0.1879221 -0.08037878 -0.15813404 -0.15915278
0.12811977 -0.017744754 -0.23964942 -0.12137557 -0.06736038 -0.0013675707 -0.07030002 0.072185524
-0.13370906 0.12603587 0.016429063 -0.16460115 0.052359473 0.053756453 0.18771194 0.028784508
-0.3998394 -0.41521367 -0.13386025 0.03304614 -0.2947978 -0.34982708 -0.27409247 0.012246666
-0.18150032 -0.07289008 -0.17317858 -0.11904201 -0.12085262 0.009044173 -0.08087909 -0.34940824
-0.6315507 -0.3825936 -0.34028032 -0.43647787 -0.09107009 -0.18779999 -0.22712451 -0.23209964
0.052487615 -0.111917764 -0.083820075 -0.056737304 -0.008871813 -0.15181628 -0.09769643 -0.06558134
-0.043391593 0.06295597 -0.039700728 -0.003046568 0.19645417 -0.047324408 -0.2009443 -0.3837012
0.15752256 -0.050703533 -0.015508685 -0.19759187 -0.24343021 -0.19063818 0.08796285 0.0704599
-0.013555593 -0.004843029 0.023629474 0.07858286 0.060133573 0.19727412 0.1973718 -0.0028763756
0.079727635 0.14842868 0.14712374 0.09632579 -0.15038551 -0.1509287 -0.02317883 0.019524634
0.1564333 -0.065983884 -0.09063707 -0.035871938 0.13670234 -0.04040176 -0.06755455 -0.01741764
0.074997306 0.054663744 0.18085116 0.19885528 0.034054972 -0.024839353 0.028334154 0.096635185
-0.055659205 0.022222005 -0.054018423 0.092331484 -0.12557593 -0.10655989 -0.048223455 0.17905861
-0.1605501 -0.13521393 -0.23148827 -0.052518062 0.05347328 0.06484213 -0.047871232 -0.035884537
-0.20579042 -0.06989221 0.12232155 0.16058737 -0.07533036 0.07624589 0.09876272 0.121748276
0.15254079 0.12377051 -0.060617946 -0.09492378 0.110524625 0.0901944 -0.06204952 0.021108162
0.01973536 -0.00048954866 0.07279839 0.025920989 -0.13418488 -0.16823922 -0.09828899 -0.032086793
0.09542392 -0.10767922 -0.13084142 -0.0911632 0.05685635 -0.06569876 -0.15445831 -0.2430194
0.042725652 0.14504388 0.20486817 0.032266766 0.023447026 -0.0017083669 0.1485354 -0.013822346
-0.087804146 -0.13063413 -0.19192256 -0.037207812 -0.1508212 -0.034761924 0.11644166 0.0035914755
-0.050782885 0.022865098 0.0040559173 -0.016992452 0.17478804 0.14027926 0.15781991 0.11751026
0.070812166 -0.057156537 -0.031971823 0.0952376 -0.06661858 -0.09329326 -0.06848071 0.1018365
0.10949056 0.01415294 0.066882566 0.042906716 -0.058306046 -0.007527541 0.07651873 0.09042069
-0.023609618 0.03514043 0.0025371604 0.03382671 0.043896623 0.09440023 0.08323854 0.021524813
-0.057128895 0.22480997 -0.025341753 -0.20279628 -0.34042802 -0.33830652 -0.36950368 -0.2650844
-0.16448297 -0.4100406 -0.46857598 -0.15067747 0.07079032 -0.19443683 -0.27241936 -0.26460814
0.009626248 0.10106232 0.13346027 0.07081328 0.011483407 0.21571861 0.15336612 0.022197418
0.25406346 0.067245685 0.05385624 0.16779616 0.24423583 0.1421701 0.11207401 0.15591529
0.054708377 0.12110796 0.094106 -0.10905953 0.011030355 0.055423807 -0.1047602 -0.1410631
0.009367459 -0.09552482 -0.15086351 0.06731352 0.074754514 -0.01665983 0.13086835 0.25028875
00000000: fe07 4dbe b6ba 99bd a33c 3dbe fd6c bcbe
00000010: 34ea 083e d443 313c bce9 30bc 8067 8ebc
00000020: d711 02be 8ddf 573a 20b9 f6bc c97b 2ebe
00000030: a76e 40be a19d a4bd e4ed 21be f2f8 22be
00000040: d431 033e 725d 91bc a866 75be c193 f8bd
00000050: 3df4 89bd 0f40 b3ba 75f9 8fbd 01d6 933d
00000060: 07eb 08be 8c0f 013e 3e96 863c 348d 28be
00000070: e376 563d ba2f 5c3d 8f37 403e 7dcd eb3c
00000080: c0b7 ccbe e396 d4be a912 09be 645b 073d
00000090: bdef 96be 891c b3be d955 8cbe 3da6 483c
000000a0: 38db 39be 6547 95bd ba55 31be 4ccc f3bd
000000b0: 9481 f7bd 032e 143c f0a3 a5bd a3e5 b2be
000000c0: 4fad 21bf 4fe3 c3be 3939 aebe 077a dfbe
000000d0: f582 babd a44e 40be 5493 68be 87ab 6dbe
000000e0: 41fd 563d 2435 e5bd dca9 abbd 6065 68bd
000000f0: 155b 11bc ba75 1bbe 1115 c8bd 824f 86bd
00000100: 62bb 31bd 0fef 803d 3b9d 22bd eea8 47bb
00000110: 482b 493e 3dd7 41bd 58c4 4dbe 7c74 c4be
00000120: 984d 213e 82ae 4fbd 2418 7ebc 8655 4abe
00000130: c545 79be a836 43be de25 b43d 484d 903d
00000140: 4718 5ebc 46b2 9ebb 9992 c13c 0df0 a03d
00000150: 9f4e 763d 3a02 4a3e d51b 4a3e 9381 3cbb
00000160: 3e48 a33d b0fd 173e 9ba7 163e 7546 c53d
00000170: a9fe 19be 0e8d 1abe 88e1 bdbc 20f2 9f3c
00000180: 0d30 203e 8f22 87bd ee9f b9bd 74ee 12bd
00000190: b3fb 0b3e 517c 25bd 0a5a 8abd 70af 8ebc
000001a0: 3098 993d 17e7 5f3d 0c31 393e b8a0 4b3e
000001b0: 3a7d 0b3d e67b cbbc 071d e83c abe8 c53d
000001c0: e8fa 63bd ec0a b63c 6c42 5dbd 4a18 bd3d
000001d0: fa96 00be 123c dabd f585 45bd 245b 373e
000001e0: 3f67 24be 8575 0abe 430b 6dbe 2e1d 57bd
000001f0: cc06 5b3d f3cb 843d a014 44bd aafb 12bd
00000200: b9ba 52be a623 8fbd b983 fa3d 0471 243e
00000210: ce46 9abd ce26 9c3d 1c44 ca3d 2957 f93d
00000220: a733 1c3e 657b fd3d 864a 78bd 6667 c2bd
00000230: bc5a e23d d7b7 b83d a327 7ebd 06eb ac3c
00000240: 0dac a13c 0e55 00ba 5317 953d 4158 d43c
00000250: c367 09be e746 2cbe bd4b c9bd 716d 03bd
00000260: 9e6d c33d ec86 dcbd 4bfb 05be c6b3 babd
00000270: 34e2 683d 128d 86bd 522a 1ebe 14da 78be
00000280: 1801 2f3d 6286 143e f6c8 513e 282a 043d
00000290: fa13 c03c 48eb dfba aa19 183e 1f77 62bc
000002a0: a9d2 b3bd f4c4 05be 5987 44be 3867 18bd
000002b0: df70 1abe 8562 0ebd f778 ee3d f65e 6b3b
000002c0: b701 50bd 964f bb3c 80e7 843b c133 8bbc
000002d0: a3fb 323e 5ea5 0f3e 8b9b 213e 38a9 f03d
000002e0: f805 913d f91c 6abd e3f4 02bd ee0b c33d
000002f0: 526f 88bd 8910 bfbd 9d3f 8cbd a88f d03d
00000300: 963c e03d bce1 673c baf9 883d f4be 2f3d
00000310: 52d2 6ebd 97a9 f6bb dab5 9c3d 7c2e b93d
00000320: f568 c1bc 69ef 0f3d 7d46 263b e08d 0a3d
00000330: f2cc 333d e854 c13d f878 aa3d ce54 b03c
00000340: fdff 69bd 9634 663e 8299 cfbc d4a9 4fbe
00000350: 954c aebe 8336 adbe 962f bdbe 24b9 87be
00000360: 396e 28be d7f0 d1be 31e9 efbe 324b 1abe
00000370: 84fa 903d 731a 47be 8d7a 8bbe b87a 87be
00000380: 69b7 1d3c c3f9 ce3d cfa9 083e 8e06 913d
00000390: e624 3c3c 57e5 5c3e 020c 1d3e 5cd7 b53c
000003a0: 9b14 823e 1bb8 893d 5c98 5c3d c2d2 2b3e
000003b0: f518 7a3e 0a95 113e 0f87 e53d 42a8 1f3e
000003c0: e415 603d 7307 f83d a6ba c03d 9a5a dfbd
000003d0: a9b8 343c 1304 633d 848c d6bd d872 10be
000003e0: f979 193c 84a2 c3bd f77b 1abe acdb 893d
000003f0: e518 993d 327a 88bc 5a02 063e d925 803e

fc1.bias f4 [10]
-0.21907787 -0.4589003 -0.120949924 0.25585008 0.26226008 0.17087124 0.2896225 -0.23150274
0.035382185 -0.13666461
00000000: f355 60be fbf4 eabe 98b4 f7bd c8fe 823e
00000010: f446 863e dff8 2e3e 6649 943e 0e0f 6dbe
00000020: e9ec 103d cff1 0bbe
