convolutional-neural-networks/cifar-cnn/model-cifar.pt (torch_old, 50528 bytes, 8 tensors)

conv1.weight f4 [16, 3, 3, 3]
0	0x3e2f69b8	0.17130172
1	0x3ed8d9e2	0.4235373
2	0x3e5ca47b	0.2154712
3	0x3e770d59	0.24126185
4	0xbe870906	-0.26374072
5	0xbe48d2ee	-0.19611713
6	0xbea2aabf	-0.31770894
7	0xbda79a81	-0.08183766
8	0xbdecd0d6	-0.1156327
9	0xbcba86e9	-0.022769408
10	0x3d16c051	0.0368045
11	0x3e1a9abf	0.15098093
12	0x3e097969	0.1342522
13	0xbd035ed8	-0.032072872
14	0xbec4d20e	-0.3844151
15	0xbe6caf90	-0.23113847
16	0xbdf2f306	-0.11862759
17	0x3e2ff369	0.17182697
18	0x3cda0c9d	0.026617343
19	0x3e036bf0	0.12834144
20	0x3e290fa9	0.1650988
21	0x3ddac919	0.106828876
22	0xbdb8d8f0	-0.090257525
23	0xbe78db84	-0.24302489
24	0xbd2ffc7b	-0.042965394
25	0x3d418fa9	0.047256146
26	0x3d72e6b4	0.059302047
27	0xbead9dcc	-0.33909452
28	0x3ea0b906	0.31391162
29	0x3c011020	0.00787738
30	0x3e85499b	0.2603272
31	0xbe0ab42b	-0.13545291
32	0xbed65b70	-0.41866636
33	0xbe46c847	-0.19412337
34	0xbe850a31	-0.25984338
35	0x3ed7f6f0	0.42180586
36	0xbe3de603	-0.18544774
37	0x3e414244	0.18872935
38	0x3d587fc9	0.05285624
39	0x3f309013	0.6896984
40	0x3e1c2379	0.15247907
41	0xbe7207bf	-0.23635767
42	0x3c2a8fff	0.010410308
43	0xbe931881	-0.28729632
44	0x3e0012d7	0.12507187
45	0xbe90c320	-0.2827387
46	0x3ded3435	0.11582223
47	0xbce19b34	-0.027539827
48	0x3e6bcff7	0.23028551
49	0xbe07de22	-0.1326833
50	0xbded69bb	-0.11592432
51	0xbe541c9c	-0.20714039
52	0xbdbf8c82	-0.093529716
53	0x3e7ef401	0.24897768
54	0x3dbf9b3d	0.09355781
55	0x3c6d620f	0.014488711
56	0xbe880dc6	-0.26573008
57	0x3e7bca92	0.24588993
58	0xbe01842f	-0.1264808
59	0xbec631c5	-0.38709846
60	0xbdd578f0	-0.104234576
61	0xbe3b1649	-0.1827022
62	0xbe13c727	-0.1443144
63	0x3e7bc485	0.24586685
64	0xbda97dfa	-0.08275981
65	0xbe958aad	-0.29207364
66	0x39ac7759	0.00032895317
67	0x3d86165f	0.06547236
68	0xbe1e5ef7	-0.15465914
69	0x3e378ee5	0.17925604
70	0xbe2b9869	-0.16757359
71	0xbe0961be	-0.13416192
72	0x3daac9b4	0.08339253
73	0x3e399321	0.18122531
74	0x3e39503e	0.18097016
75	0xbd67c8df	-0.05658805
76	0xbcf33e49	-0.029692786
77	0x3e0f75cf	0.14009784
78	0xbcdf3739	-0.027248012
79	0x3d91266b	0.07087406
80	0xbd88090b	-0.0664235
81	0x3e6a5a81	0.22886087
82	0x3c5889a5	0.013216411
83	0xbe2f44f9	-0.17116155
84	0x3ce9428f	0.02847412
85	0xbc756192	-0.014976876
86	0xbd31017c	-0.043214306
87	0xbdfcf9d0	-0.123523355
88	0x3dd73baa	0.10509427
89	0x3c081caa	0.008307615
90	0x3e19440e	0.14967367
91	0xbd4310ad	-0.047623325
92	0xbe71b6c1	-0.23604871
93	0xbe1283f4	-0.14308149
94	0xbcb7f0d1	-0.022453697
95	0x3d46cebe	0.04853701
96	0xbd2f4a6b	-0.04279558
97	0xbc90525c	-0.017617397
98	0x3c06adbf	0.008220135
99	0x3e05ab5b	0.13053648
100	0x3e9a3388	0.3011744
101	0xbdae694d	-0.08516178
102	0x3e347a4f	0.17624782
103	0x3ec405d1	0.38285688
104	0xbe343661	-0.17598869
105	0x3d625c4e	0.05526381
106	0x3e917b5c	0.28414428
107	0xbde7bf30	-0.11315763
108	0x3d920d9c	0.07131502
109	0x3da207d5	0.0791165
110	0x3d0da9aa	0.034585632
111	0xbd01c582	-0.0316825
112	0x3c383361	0.011242718
113	0xbde39678	-0.11112684
114	0xbc9c7195	-0.019097129
115	0x3dcc6cfb	0.09981724
116	0xbd6ff687	-0.058584716
117	0xbb997d78	-0.0046841465
118	0x3c1abccc	0.009444427
119	0xbd608946	-0.054818414
120	0x3d841a45	0.06450323
121	0x3e56b148	0.20966065
122	0xbe994eb4	-0.29942858
123	0x3e3a9e35	0.18224414
124	0x3d92c2b9	0.07166047
125	0xbe9b389e	-0.30316633
126	0x3e1bdf9b	0.15222017
127	0xbcbe8be4	-0.023260064
128	0xbe95cdee	-0.29258674
129	0x3e90032a	0.28127414
130	0x3e5ff5ff	0.21871184
131	0xbeb2c509	-0.3491595
132	0x3e3814d7	0.179767
133	0x3d8f9672	0.07011117
134	0xbe6fd2fe	-0.23420331
135	0xbe17e631	-0.14833905
136	0x3d68f687	0.05687573
137	0x3eaea98e	0.34113735
138	0xbb20b454	-0.0024521546
139	0xbebe7b20	-0.37203312
140	0xbddabd5e	-0.1068065
141	0x3e87c3ec	0.26516664
142	0x3e03945b	0.12849562
143	0xbdc01a32	-0.09379996
144	0xbcf0de2e	-0.029402819
145	0x3eaf1682	0.3419686
146	0x3edb6c89	0.42856243
147	0xbe293ed6	-0.16527876
148	0xbf08129f	-0.53153414
149	0xbd7bdc06	-0.061489128
150	0x3d6c8d1e	0.057751767
151	0xbd1c88f0	-0.03821653
152	0xbe467268	-0.1937958
153	0xbd9dece2	-0.077111974
154	0xbdbec8ca	-0.09315641
155	0x3de7510b	0.112947546
156	0x3e273e0e	0.16332266
157	0xbea919b8	-0.33027434
158	0x3c2eff74	0.010681022
159	0x3e343711	0.17599131
160	0x3e41f654	0.18941623
161	0xbda34a8b	-0.07973202
162	0xbb85250c	-0.004063254
163	0x3d8d4ebd	0.06899784
164	0x3cbe161b	0.0232039
165	0xbc53fe98	-0.012939118
166	0xbd858433	-0.065193556
167	0xbe485641	-0.19564153
168	0xbc4f466e	-0.012651069
169	0xbe93d22f	-0.28871295
170	0xbe8dd4ef	-0.27701518
171	0xbd91c2e9	-0.07117254
172	0xbe7db5a2	-0.24776319
173	0xbd2beb54	-0.041972473
174	0x3cf2d445	0.029642234
175	0xbdd282db	-0.10278865
176	0x3cdadf5f	0.02671784
177	0xbdc496d4	-0.09599081
178	0xbc78cc5e	-0.015185444
179	0xbde05b42	-0.10954906
180	0x3e61c3c4	0.22047335
181	0x3e241013	0.16021757
182	0xbd1c1ed2	-0.03811533
183	0x3da8620a	0.082218245
184	0x3ebda4ad	0.370397
185	0x3ed6463a	0.41850454
186	0xbdd3bb91	-0.1033851
187	0x3e208288	0.15674794
188	0x3e9b0639	0.30278185
189	0xbe8dd01f	-0.27697846
190	0x3eb46d80	0.35239792
191	0xbdb894d6	-0.09012763
192	0xbe7e9106	-0.2486001
193	0x3f1bdc87	0.60883373
194	0xbec93cd1	-0.39304212
195	0x3c9f5c04	0.019453056
196	0x3dfdef8d	0.12399206
197	0xbdd89bc4	-0.10576585
198	0xbe2f2ffb	-0.17108147
199	0x3ef84881	0.48492816
200	0xbe9be4c8	-0.30447984
201	0xbe1e5c12	-0.1546481
202	0x3ee703b6	0.4512002
203	0xbeb16ad3	-0.34651813
204	0x3d0c5ca5	0.03426804
205	0x3dea43ec	0.11438736
206	0xbe39c973	-0.18143253
207	0xbe95d3f3	-0.29263267
208	0x3e7d634a	0.24744907
209	0x3cddb54f	0.027063994
210	0xbe6eabc1	-0.23307706
211	0x3ee9ac09	0.45639065
212	0xbe24c492	-0.1609061
213	0xbd91541a	-0.07096119
214	0x3d9bdcf2	0.07610501
215	0xbb88d12e	-0.004175327
216	0x3f015166	0.5051483
217	0x3e8b94ec	0.27262056
218	0x3d84093d	0.064470746
219	0x3d4aa97a	0.04947803
220	0x3e200983	0.15628628
221	0xbd8c2b76	-0.06844227
222	0x3db3a1e2	0.08771111
223	0xbdd2ec00	-0.1029892
224	0xbf192165	-0.5981658
225	0xbe1ac61a	-0.15114632
226	0xbda4c614	-0.08045593
227	0x3e49a258	0.19690835
228	0xbe7003f3	-0.23439007
229	0xbe0063b4	-0.12538034
230	0xbe4cb2a9	-0.19990028
231	0xbe70ce82	-0.23516276
232	0x3bd3f1e4	0.0064680446
233	0x3ea42168	0.32056737
234	0xbe497c2e	-0.19676277
235	0xbe3d48b8	-0.18484771
236	0xbe28f227	-0.16498624
237	0xbd7448fc	-0.059639916
238	0xbe9e5f58	-0.30932117
239	0x3d5b4a10	0.05353743
240	0xbdc6b76a	-0.09702952
241	0x3e70ba4a	0.23508564
242	0x3ee8b197	0.4544799
243	0xbd373376	-0.04472681
244	0xbe1e95cb	-0.15486829
245	0x3e123a15	0.14279969
246	0x3d1eab60	0.038737655
247	0xbe44dae8	-0.19224131
248	0xbee16578	-0.44022727
249	0x3d87a5e6	0.066234395
250	0x3e991e38	0.29905868
251	0x3eb2dbb0	0.34933233
252	0xbca86b94	-0.02055911
253	0xbdb3edcd	-0.08785591
254	0x3d08c98b	0.03339533
255	0x3e525e07	0.20543681

conv1.bias f4 [16]
0	0xbe331b2f	-0.17490838
1	0xbd8abb68	-0.06774026
2	0xbec5b5a5	-0.38615146
3	0xbe4aa42d	-0.1978919
4	0xbd92f339	-0.07175297
5	0xbe0f55e2	-0.13997605
6	0x3d66946b	0.056293886
7	0xbd8ddf4d	-0.06927357
8	0xbe9366cf	-0.28789374
9	0xbd97252e	-0.07380138
10	0xbe52eaae	-0.20597336
11	0xbdbdda2d	-0.09270129
12	0xbc3223d7	-0.010872803
13	0xbe930f46	-0.2872259
14	0xbe4c015d	-0.19922395
15	0xbe2635c5	-0.16231449

conv2.weight f4 [32, 16, 3, 3]
0	0x3e5ab079	0.21356381
1	0x3d99bbe7	0.07506543
2	0x3cc4a429	0.024004059
3	0xbd5bdf5f	-0.05367982
4	0xbdc274b9	-0.09494919
5	0xbe77defe	-0.24206159
6	0x3d9ad19e	0.075595126
7	0xbca9af70	-0.020713538
8	0xbdc85908	-0.09782606
9	0x3d0394d1	0.032124344
10	0x3dc45863	0.09587171
11	0x3e147027	0.14495908
12	0x3d58e1bf	0.052949663
13	0x3e2ca7c2	0.1686087
14	0x3da332a0	0.0796864
15	0xbef0e157	-0.4704692
16	0xbe87704a	-0.26452857
17	0xbf0d637e	-0.5522994
18	0x3ce4df8a	0.027938623
19	0xbdf2f065	-0.11862258
20	0xbe402422	-0.18763784
21	0xbc462c56	-0.012095531
22	0x3d1709d8	0.036874622
23	0x3e13ecdc	0.14445823
24	0xbd008d61	-0.03138483
25	0x3d81cc17	0.06337755
26	0xbe29e64f	-0.16591762
27	0x3ea2863c	0.31743038
28	0x3e8bf405	0.2733461
29	0xbeffd3a2	-0.4996615
30	0x3e0a55bb	0.13509266
31	0x3c791019	0.015201592
32	0xbf13670a	-0.575791
33	0xbd1e13d0	-0.038593113
34	0xbd56ccbe	-0.05244135
35	0xbf0dc77e	-0.55382526
36	0x3e14683a	0.14492884
37	0x3dbae594	0.0912582
38	0xbc020c59	-0.007937514
39	0x3d2edf71	0.04269356
40	0xb91b6164	-0.00014818233
41	0xbdb974a8	-0.090554535
42	0x3d5143a2	0.05108989
43	0x3b8d464d	0.004311359
44	0xbe0feee4	-0.14055973
45	0x3bc2bfac	0.005943259
46	0x3d3c2f96	0.04594382
47	0xbe52f4da	-0.20601216
48	0x3c3b40bb	0.011429007
49	0x3d7af127	0.061265137
50	0xbda001af	-0.07812821
51	0x3db56678	0.08857435
52	0x3be4d286	0.006983104
53	0x3e0fd91c	0.14047664
54	0x3d0bab46	0.034098886
55	0x3e6454ec	0.2229802
56	0xbda4b937	-0.080431394
57	0x3d8ca45d	0.06867287
58	0x3e80332b	0.25039038
59	0xbe05a274	-0.13050252
60	0xbe233923	-0.15939765
61	0xbe260772	-0.16213778
62	0xbe210a1b	-0.15726511
63	0x3da6149f	0.08109402
64	0x3dcef25f	0.10104822
65	0xbcbd64da	-0.023119379
66	0x3ceeefd3	0.029167091
67	0xbd2d905d	-0.042374004
68	0xbe85e385	-0.26150146
69	0x3e411a5f	0.18857716
70	0x3d70bdd0	0.05877477
71	0xbe0941e2	-0.13404039
72	0xbac85e64	-0.001528692
73	0xbe6e7640	-0.23287296
74	0xbe8a3212	-0.26991326
75	0xbe99792e	-0.29975265
76	0xbf27a671	-0.65488344
77	0xbf4d49a5	-0.801905
78	0x3eb1530e	0.34633678
79	0x3ec7ce32	0.39024502
80	0x3eec5e42	0.46165663
81	0xbe397db2	-0.18114355
82	0xbcfb7c29	-0.030698853
83	0xbea1d750	-0.31609583
84	0x3da9a1b3	0.08282795
85	0x3e09435f	0.13404606
86	0x3e251209	0.16120161
87	0xbe89ae94	-0.26891005
88	0xbdc1ce01	-0.0946312
89	0xbe8b42fd	-0.27199546
90	0xbe8780d0	-0.26465464
91	0xbe27382d	-0.16330023
92	0xbec88709	-0.39165524
93	0xbd9f2835	-0.07771341
94	0x3de548b8	0.111955106
95	0xbe08078e	-0.13284132
96	0x3ea317aa	0.31853992
97	0x3ede2a26	0.43391532
98	0x3db9d3e7	0.0907362
99	0xbe3ea719	-0.1861843
100	0xbe5c345b	-0.21504347
101	0xbeec99b1	-0.46211007
102	0xbe4d1a7c	-0.20029634
103	0xbe482917	-0.19546925
104	0xbf066b20	-0.5250721
105	0xbd0a0d15	-0.033703882
106	0x3e1ff2c2	0.15619949
107	0xbe9043c9	-0.28176716
108	0xbf10b93e	-0.5653266
109	0xbf1b742d	-0.60724145
110	0xbf380f20	-0.7189808
111	0xbe133211	-0.14374568
112	0xbe5d2fe1	-0.21600296
113	0xbea28e89	-0.3174937
114	0x3ec28a53	0.37996158
115	0x3edffe99	0.4374893
116	0x3e415179	0.18878736
117	0x3e119091	0.14215304
118	0xbc1a21de	-0.009407489
119	0xbe5cb8b8	-0.2155484
120	0xbd366bc0	-0.044536352
121	0xbcf11216	-0.02942757
122	0xbe599ef0	-0.21252036
123	0xbcb94bd7	-0.022619171
124	0x3e4f8795	0.20266564
125	0xbe0b08a5	-0.13577516
126	0x3e323f8a	0.1740705
127	0x3eb7893e	0.35846895
128	0xbd6074bc	-0.054798827
129	0xbcb4ab6d	-0.022054398
130	0xbd231f62	-0.03982485
131	0xbeddf6f3	-0.4335247
132	0x3c357f70	0.011077747
133	0xbd56b755	-0.052420933
134	0x3db1260a	0.086498335
135	0x3d54e4da	0.051976062
136	0x3d7b08d8	0.06128773
137	0xbe8baa78	-0.27278495
138	0xbe1407c3	-0.14456086
139	0xbae07d80	-0.0017127246
140	0x3dc2352f	0.094828
141	0xbe600739	-0.21877755
142	0xbe359ebd	-0.17736335
143	0xbcda3389	-0.026635902
144	0x3c431922	0.011907848
145	0x3e4b1a1d	0.1983418
146	0x3e172660	0.14760733
147	0x3e22e48c	0.15907496
148	0x3cf47643	0.029841548
149	0x3dc2693a	0.094927266
150	0xb9e67023	-0.00043952567
151	0xbcb5fddd	-0.022215778
152	0xbdb620fe	-0.088930115
153	0x3db83657	0.089947395
154	0x3d83a8d7	0.06428688
155	0x3da14357	0.07874172
156	0x3e026296	0.1273292
157	0x3cc85fa4	0.024459668
158	0x3dd55b6e	0.104178295
159	0xbe2bf58b	-0.16792886
160	0xbe08e2f6	-0.13367829
161	0xbdc64679	-0.0968141
162	0xbe72c045	-0.23706158
163	0xbe8b8946	-0.2725317
164	0xbe2fd947	-0.17172728
165	0x3c3d2696	0.011544844
166	0x3e4503d3	0.1923974
167	0x3ddff546	0.10935454
168	0x3e1d6242	0.15369514
169	0x3e76feae	0.2412059
170	0x3cffd8c6	0.031231295
171	0xbdf52560	-0.11970019
172	0xbd47ebdf	-0.04880893
173	0xbd775b70	-0.060389936
174	0xbd17911e	-0.03700363
175	0xbd8948b5	-0.06703321
176	0xbdf1ecf8	-0.11812776
177	0xbdf520af	-0.119691245
178	0xbdcb179b	-0.09916612
179	0xbe59b694	-0.21261054
180	0xbca2bc6f	-0.019865243
181	0xbe27369f	-0.1632943
182	0x3d1245f8	0.03571126
183	0xbcf51534	-0.029917337
184	0xbd978611	-0.07398618
185	0x3d170402	0.036869057
186	0xbb7c4903	-0.0038495667
187	0xbdd6af38	-0.10482639
188	0x3c30fa50	0.010801867
189	0xbe2fecc0	-0.17180157
190	0x3d79b842	0.060966738
191	0x3b5e8b3b	0.00339575
192	0x3d97d0ec	0.074128956
193	0x3d8e74d9	0.06955881
194	0x3e102232	0.14075544
195	0x3d2d8c65	0.04237022
196	0xbde17509	-0.11008651
197	0x3df1a2ed	0.11798654
198	0x3e53238e	0.20619032
199	0x3d14b3c1	0.03630424
200	0x3e554420	0.20826769
201	0x3e595299	0.21222915
202	0x3e12fcea	0.14354292
203	0x3e0f6ece	0.14007112
204	0x3d0a7334	0.033801273
205	0xbddc90cd	-0.10769806
206	0xbe31bd81	-0.17357446
207	0xbd3e73a6	-0.04649701
208	0xbd8b0e48	-0.06789833
209	0x3c334b8e	0.010943307
210	0x3e445be9	0.19175686
211	0xbe293d8e	-0.16527387
212	0x3dd3abca	0.103355005
213	0x3e633f01	0.22192003
214	0xbdecc61a	-0.115612224
215	0x3e9b1e24	0.30296433
216	0xbe06a184	-0.13147551
217	0xbe6b2f51	-0.22967269
218	0xbd6a0b91	-0.057139937
219	0xbefd458b	-0.4946712
220	0xbf3cd379	-0.7376018
221	0xbf429db6	-0.760219
222	0xbea13487	-0.31485388
223	0xbf413018	-0.7546401
224	0xbf80b9f7	-1.0056752
225	0x3c115c04	0.008872036
226	0xbd87aea4	-0.06625107
227	0xbd104d8c	-0.035230204
228	0xbe0f44a5	-0.1399103
229	0xbbf1ca68	-0.007378865
230	0xbdd83ee3	-0.1055887
231	0x3d9c2b81	0.07625485
232	0x3d6400c2	0.055664785
233	0x3e09197c	0.13388628
234	0xbe19ac89	-0.15007223
235	0xbd84db01	-0.06487084
236	0xbe036f2c	-0.12835377
237	0xbe0faf29	-0.14031662
238	0xbdac1a19	-0.08403415
239	0xbd784509	-0.060612712
240	0xbdc0597b	-0.09392067
241	0xbe3aa8cb	-0.18228452
242	0xbdfe4556	-0.124155685
243	0xbd9c74a8	-0.07639438
244	0xbd45f0ad	-0.04832523
245	0xbd9ca4c8	-0.07648617
246	0xbe4cfccd	-0.20018311
247	0xbea2b2a3	-0.31776914
248	0xbda98c7c	-0.082787484
249	0xbd62f19f	-0.05540621
250	0xbdb2beba	-0.087277845
251	0xbd07e8a0	-0.033180833
252	0xbf3d022a	-0.7383143
253	0xbf4bdab0	-0.79630566
254	0xbf045576	-0.51692903
255	0xbed71898	-0.4201095

conv2.bias f4 [32]
0	0xbb460229	-0.003021369
1	0x3dcce84e	0.10005246
2	0xbdb35698	-0.08756751
3	0xbd8a2599	-0.067454524
4	0xbe36eba7	-0.17863332
5	0x3e33d5c0	0.17562008
6	0xbab33471	-0.0013672245
7	0x3e05ad75	0.1305445
8	0x3e993ffb	0.29931626
9	0xbe0640bd	-0.13110633
10	0x3e16cf30	0.14727473
11	0xbe61f4dc	-0.22066063
12	0x3d15814c	0.03650026
13	0xbe4e530b	-0.20148866
14	0x3e34a505	0.17641075
15	0xbdecf977	-0.11571019
16	0xbe0a0099	-0.1347679
17	0x3cf46ba1	0.029836478
18	0x3d2c808b	0.042114776
19	0xbe767ed3	-0.24071817
20	0x3e1679b0	0.14694858
21	0x3c7d5b7b	0.015463705
22	0x3d992452	0.07477631
23	0x3e5cb2e4	0.21552616
24	0xbe5966c1	-0.21230604
25	0x3d7be1ee	0.06149476
26	0xbd593a57	-0.053034153
27	0x3e74c73c	0.23904127
28	0x3e84219c	0.25806892
29	0xbe3f4a68	-0.18680727
30	0x3eabcc70	0.3355441
31	0x3eb3f7a5	0.35149875

conv3.weight f4 [16, 32, 3, 3]
0	0x3daafed6	0.08349387
1	0x3d6c8a88	0.0577493
2	0x3e36f12a	0.17865434
3	0xbdebf3f4	-0.1152114
4	0xbe9bc5ca	-0.3042434
5	0xbe629761	-0.22128059
6	0xbeb89bcf	-0.36056373
7	0xbf04abb9	-0.5182453
8	0xbe88ea2b	-0.26741156
9	0xbde3ebd8	-0.11128968
10	0xbde8ba6c	-0.11363682
11	0xbc4c0f14	-0.012454767
12	0xbe5b4baa	-0.21415582
13	0xbef197f4	-0.47186244
14	0xbeaca169	-0.33716896
15	0x3d05bd35	0.032651145
16	0xbeb970e7	-0.3621895
17	0xbe830bd8	-0.25594974
18	0x3e3f6c2e	0.18693611
19	0x3ea814c6	0.3282835
20	0x3dfb9613	0.12284484
21	0x3dd79cea	0.10527976
22	0x3a339ecb	0.000685197
23	0x3da111eb	0.07864746
24	0x3d07c557	0.033147182
25	0x3e5d361b	0.21602671
26	0xbda0be3e	-0.07848786
27	0xbc2bf639	-0.010495716
28	0x3c341754	0.01099189
29	0xbd42b3f2	-0.04753489
30	0xbd0e8534	-0.034795
31	0xbccae8ce	-0.024769213
32	0xbc62d324	-0.013844285
33	0x3d06a30d	0.03287034
34	0xbdbeb80b	-0.09312447
35	0xbc3499af	-0.011022969
36	0xbd06c88b	-0.032906096
37	0xbd19ef29	-0.037581597
38	0xbe2321c3	-0.15930848
39	0xbd0887a5	-0.033332486
40	0xbecfd07e	-0.40588754
41	0xbee3fdda	-0.4452961
42	0xbe5d245f	-0.21595906
43	0xbf14849d	-0.5801485
44	0xbf211aaf	-0.6293134
45	0xbc57a0a7	-0.013160861
46	0xbb992c85	-0.0046744966
47	0x3ce34e69	0.02774735
48	0xbdc1e13c	-0.09466788
49	0x3d4412f9	0.047869656
50	0x3df12d54	0.11776224
51	0xbcd1634c	-0.025560044
52	0xbe2503e7	-0.1611477
53	0xbe07574e	-0.13216898
54	0x3db14c16	0.0865709
55	0xbd7cfd8f	-0.06176525
56	0xbd6cd335	-0.05781861
57	0xbd16899e	-0.036752336
58	0xbe0a7503	-0.13521199
59	0xbdcdc6c4	-0.10047677
60	0xbd17e1ee	-0.037080698
61	0xbe7ad4ee	-0.24495289
62	0xba0198bd	-0.0004943719
63	0xbeae00b4	-0.3398491
64	0xbe84e20c	-0.2595371
65	0x3cd01db9	0.025404798
66	0xbec9879b	-0.3936127
67	0xbe377601	-0.17916109
68	0xbcb4e5be	-0.022082206
69	0xbe85c5a6	-0.26127356
70	0xbe1c28f3	-0.15249996
71	0xbe6f0fb2	-0.23345831
72	0x3e71cdd0	0.23613667
73	0x3e9428db	0.2893742
74	0xbda109df	-0.07863211
75	0x3e56e375	0.20985205
76	0x3e94a224	0.29029953
77	0xbea71247	-0.32631132
78	0x3d812713	0.06306281
79	0x3d21274d	0.03934412
80	0xbde3eed3	-0.111295365
81	0x3deb7170	0.11496246
82	0x3d1a2cde	0.037640445
83	0x3d2caae7	0.042155173
84	0x3d45258a	0.048131503
85	0x3d8a817b	0.06762978
86	0xbda66c2a	-0.081260994
87	0x3e5b424a	0.21412006
88	0x3d0b07bb	0.03394292
89	0x3cb19d17	0.021681352
90	0x3e58ba3a	0.2116479
91	0x3e8c3ebb	0.2739161
92	0x3d54f222	0.05198873
93	0x3effbfb6	0.4995095
94	0x3e9c316a	0.3050645
95	0xbe016657	-0.12636696
96	0x3ca5d69b	0.020243933
97	0xbe104d38	-0.14091957
98	0xbd82f333	-0.06394043
99	0x3bff1145	0.007784041
100	0x3d877946	0.06614928
101	0x3e1143f8	0.14186084
102	0x3d6158e0	0.0550164
103	0xbe57860e	-0.21047232
104	0xbd8e35e7	-0.06943875
105	0xbd8ebeb6	-0.06969969
106	0x3d048918	0.032357305
107	0xbe54b7be	-0.20773217
108	0xbdc23f0f	-0.09484684
109	0xbe6ef674	-0.23336202
110	0x3e0b67da	0.13613835
111	0x3dc0322c	0.093845695
112	0x3da49730	0.08036649
113	0x3e71c99f	0.23612069
114	0xbad246a5	-0.0016042782
115	0x3d955901	0.07292367
116	0x3ec506b8	0.38481688
117	0xbccf4da0	-0.02530557
118	0x3d3f73a6	0.04674115
119	0x3da6f4bc	0.08152148
120	0xbe0f7e3d	-0.14013
121	0xbe2dee31	-0.16985394
122	0x3db39555	0.08768717
123	0x3d023899	0.031792257
124	0x3e27ac90	0.16374421
125	0x3d18609d	0.037201513
126	0xbe3b2039	-0.1827401
127	0xbe7bc8db	-0.24588339
128	0x3dfd8ece	0.123807535
129	0xbd865076	-0.065583155
130	0xbeae3272	-0.34022862
131	0xbe2b3da6	-0.16722736
132	0x3c18404d	0.009292674
133	0xbe25e2df	-0.16199826
134	0xbdd599c7	-0.10429721
135	0x3c549806	0.012975698
136	0x3d1054e9	0.035237227
137	0xbcb5ca84	-0.022191294
138	0x3d038ddb	0.032117706
139	0xbd0fb342	-0.035083063
140	0xbf005cd4	-0.50141644
141	0xbd872c33	-0.06600227
142	0xbe317774	-0.17330724
143	0xbead8cfc	-0.33896625
144	0xbde6f9ef	-0.1127814
145	0xbe0b2857	-0.13589607
146	0xbd84de93	-0.06487765
147	0x3d2276cb	0.03966407
148	0xbe7d9d5a	-0.24767056
149	0xbe1adc60	-0.15123129
150	0xbd17f844	-0.037102
151	0xbd923d90	-0.07140648
152	0xbea5cb87	-0.32381842
153	0x3e61dd20	0.22057009
154	0x3dc271ae	0.09494339
155	0x3e7b0bb3	0.24516182
156	0xbd3ff1d7	-0.046861496
157	0x3dd3c7af	0.10340821
158	0x3ddcb124	0.107759744
159	0x3dc336b5	0.09531919
160	0x3d542371	0.051791612
161	0x3e1f6a87	0.1556798
162	0x3c63a536	0.01389437
163	0xbe1da86d	-0.1539628
164	0xbcfda370	-0.030961722
165	0x3ded6f94	0.115935475
166	0x3d6c6333	0.05771179
167	0xbce6c53d	-0.028170222
168	0x3e1dbac8	0.15403283
169	0x3e017c85	0.12645157
170	0x3d61e7e8	0.055152804
171	0x3d8e6432	0.069527045
172	0xbd52135f	-0.051288005
173	0xbc21c30a	-0.009873161
174	0x3c41d342	0.011830153
175	0x3cd7c985	0.02634121
176	0x3ce9d113	0.028542077
177	0x3ce4714c	0.027886055
178	0x3c9eafa5	0.019370863
179	0xbd663121	-0.056199197
180	0xbce1ab16	-0.0275474
181	0xbc2e0774	-0.010621894
182	0x3d07180d	0.03298192
183	0xbea5586f	-0.32294032
184	0xbe04777b	-0.12936203
185	0xbdc9a222	-0.098453775
186	0xbe747949	-0.23874392
187	0xbe648bdd	-0.22318979
188	0xbe863dcd	-0.26219025
189	0x3d766fd2	0.060165234
190	0xbe5b2018	-0.21398962
191	0x3e129164	0.14313275
192	0xbc20246d	-0.00977431
193	0xbcf5c906	-0.030003082
194	0x3e020809	0.12698378
195	0x3df06f36	0.11739962
196	0x3d534b02	0.051585205
197	0xbd207232	-0.039171405
198	0xbdb024ca	-0.08600767
199	0x3cdfa55c	0.02730053
200	0x3d37af37	0.044844832
201	0x3d80164c	0.06254253
202	0xbda7f92e	-0.08201824
203	0xbd8ed7a1	-0.06974722
204	0x3dff3bd5	0.12462584
205	0x3d45d96f	0.048303064
206	0x3d5aac02	0.053386696
207	0x3da37fd0	0.07983363
208	0x3dd6bef2	0.10485639
209	0xbdef2c1b	-0.11678334
210	0xbd2d54ca	-0.04231719
211	0xbe41c1bc	-0.1892156
212	0xbefcce68	-0.49376225
213	0xbe33784f	-0.17526363
214	0xbe35c978	-0.17752635
215	0xbde32de2	-0.11092736
216	0x3df0adc3	0.117518924
217	0xbd22e3d1	-0.039768044
218	0xbd3b9ac3	-0.04580189
219	0x3da5b939	0.08091969
220	0x3e27f21b	0.1640095
221	0xbe0b4ff4	-0.13604718
222	0x3d15374b	0.036429685
223	0x3df194fb	0.11795994
224	0xbd909fec	-0.07061753
225	0x3e0fafc1	0.14031889
226	0x3cd75443	0.026285296
227	0xbd948d26	-0.072534844
228	0xbcc6b2f3	-0.024255252
229	0xbd388442	-0.045048006
230	0xbcdf0cdf	-0.027227817
231	0x3e032c53	0.12809877
232	0x3e766f28	0.2406584
233	0x3e5c5783	0.21517758
234	0x3c1efb29	0.009703436
235	0xbdc8505a	-0.09780951
236	0xbe163f3c	-0.1467256
237	0x3d154800	0.036445618
238	0xbbbfa44e	-0.005848444
239	0xbe5838e8	-0.21115458
240	0x3d355703	0.044272434
241	0x3d181629	0.03713051
242	0xbdc3cf0c	-0.095609754
243	0xbe2b2a1c	-0.16715282
244	0xbea78659	-0.32719687
245	0xbdc8f288	-0.09811884
246	0xbe9b774d	-0.30364457
247	0xbe1b16aa	-0.15145364
248	0x3d4bb435	0.049732406
249	0xbe98f491	-0.2987409
250	0xbe609d00	-0.21934891
251	0xbdc1f989	-0.09471423
252	0x3e30c6b9	0.17263307
253	0x3e329e2a	0.17443147
254	0xbe5a418d	-0.21314068
255	0xbdd30332	-0.10303344

conv3.bias f4 [16]
0	0x3ec96010	0.39331102
1	0x3e7e04c2	0.24806502
2	0x3e7d9020	0.2476201
3	0xbe35f11e	-0.1776776
4	0x3e34888d	0.17630215
5	0x3e2e1afc	0.17002481
6	0xbdac9b29	-0.08428032
7	0xbd536613	-0.051611017
8	0x3f00813a	0.50197184
9	0xbe321041	-0.17389013
10	0x3f702810	0.9381113
11	0xbe3bc08e	-0.18335173
12	0x3e4a2243	0.19739632
13	0x3ee2e57f	0.44315717
14	0x3e28f238	0.16498649
15	0xbdab9336	-0.08377688

fc1.weight f4 [10, 256]
0	0xbd050928	-0.032479435
1	0xbe12568c	-0.14290828
2	0xbe84d292	-0.25941902
3	0xbe2dc580	-0.16969872
4	0xbdd57367	-0.10422402
5	0xbde9c9ea	-0.11415465
6	0xbeb3b3e4	-0.35098183
7	0xbdf54e22	-0.11977793
8	0xbde327da	-0.110915855
9	0xbd886403	-0.06659701
10	0xbe9a17ed	-0.3009638
11	0xbea4b3b2	-0.32168347
12	0xbc08d1bb	-0.008350785
13	0xbe2063b9	-0.15663041
14	0xbe710608	-0.23537457
15	0x3cd79aa9	0.026318865
16	0xbea25dd9	-0.31712225
17	0xbe073c75	-0.13206656
18	0xbd8b2da2	-0.06795813
19	0xbe8fa5c8	-0.2805617
20	0xbe0d0a44	-0.13773447
21	0x3d59f646	0.05321338
22	0xbc9dddb7	-0.019270761
23	0xbda088d0	-0.07838595
24	0xbcb22b18	-0.021749064
25	0x3ddfd434	0.109291464
26	0x3d67e555	0.056615192
27	0xbe07eb41	-0.13273336
28	0xbcf7579e	-0.030193146
29	0x3ce70bc8	0.02820386
30	0x3cf1a99d	0.029499823
31	0x3b0e8c0f	0.0021750962
32	0x3dfe740b	0.12424477
33	0x3db6a503	0.08918192
34	0x3daa728b	0.083226286
35	0x3c89490c	0.016758464
36	0x3e63ca5a	0.2224516
37	0x3e68a097	0.2271751
38	0x3e07f6f8	0.13277805
39	0xbcd86c32	-0.026418779
40	0x3e476a05	0.19474037
41	0x3d3de518	0.04636106
42	0x3da99e85	0.08282188
43	0x3dd3f78f	0.103499524
44	0xbd63f051	-0.055649105
45	0x3dd804e1	0.105478056
46	0x3e00ad6b	0.12566154
47	0x3da175a5	0.07883767
48	0x3b914975	0.0044338056
49	0xbd8103e6	-0.06299572
50	0xbd9333f7	-0.07187646
51	0x3c3401fa	0.010986799
52	0xbd9a1949	-0.07524354
53	0xbd729d32	-0.059231944
54	0xbdb794a9	-0.089639015
55	0x3c81c325	0.015840122
56	0x3ce95d7d	0.028486961
57	0x3dc1ffa4	0.09472588
58	0x3ddde914	0.10835472
59	0xbd7cb26b	-0.06169359
60	0xbdb6f8e3	-0.0893419
61	0xbc60b4c1	-0.01371497
62	0xbd2a11ae	-0.041520767
63	0xbcef90b9	-0.029243814
64	0x3c941863	0.018078035
65	0xbb86a4f0	-0.0041090176
66	0x3cf67425	0.030084679
67	0x3bc4a89f	0.0060015465
68	0xbe599593	-0.21248464
69	0xbd3be23c	-0.04587005
70	0x3c1242f0	0.008927092
71	0x3d024778	0.03180644
72	0x3dcf5dd9	0.10125322
73	0x3d4d357b	0.05009983
74	0xbdbb1f04	-0.09136775
75	0xbdc53a9f	-0.09630322
76	0x3db6f0bd	0.08932636
77	0xbd934a02	-0.0719185
78	0xbe8e3625	-0.27775684
79	0xbdf71c58	-0.12065953
80	0xbe08d9a9	-0.13364281
81	0x3c5d70c8	0.013515659
82	0x3b2cf0da	0.0026388676
83	0xbe1538f8	-0.14572513
84	0xbe9a841e	-0.30178922
85	0xbdecf838	-0.115707815
86	0xbe9be7b2	-0.30450207
87	0xbe2a49f7	-0.16629778
88	0xbe000237	-0.12500845
89	0x3c6aa1bc	0.014320787
90	0x3c0f9ccf	0.008765413
91	0xbd92a95f	-0.07161211
92	0xbe52fa57	-0.2060331
93	0xbdd8cfaf	-0.105864875
94	0x3d11d7e6	0.035606287
95	0xbcc3f5c3	-0.0239209
96	0x3c96275c	0.018329315
97	0xbd57fff4	-0.05273433
98	0xbce85820	-0.028362334
99	0x3d4608b2	0.048348136
100	0x3d47164e	0.048605256
101	0x3b3c07b9	0.0028691126
102	0xbd3d3aef	-0.04619878
103	0x3c257345	0.010098283
104	0x3d564702	0.052313812
105	0xbd07be49	-0.033140454
106	0x3c27324b	0.010204862
107	0xbdcc4dab	-0.099757515
108	0x3ca67bcd	0.020322705
109	0x3bff446a	0.007790138
110	0x3cc0825e	0.023499664
111	0xbcb7cc07	-0.022436155
112	0x3d97b3ba	0.07407327
113	0x3e2b2ae7	0.16715585
114	0x3df22b50	0.118246675
115	0x3dad5f1e	0.08465408
116	0xbd8526bc	-0.065015286
117	0x3e0a9023	0.13531546
118	0x3d3719fc	0.044702515
119	0xbddb8de2	-0.107204214
120	0xbca80623	-0.020510739
121	0xbcbb8f1d	-0.02289539
122	0xbe46d24a	-0.19416156
123	0xbe1e8721	-0.15481235
124	0x3df47e13	0.11938109
125	0x3c9524be	0.018205997
126	0x3d854cf7	0.065088205
127	0xbd66c686	-0.05634167
128	0xbd0af55c	-0.0339254
129	0xbda6efc6	-0.08151202
130	0xbdecdfee	-0.11566149
131	0xbd14d5fb	-0.03633688
132	0x3e3ba6dc	0.1832537
133	0x3e41738c	0.18891734
134	0x3e2e7682	0.17037395
135	0x3e583455	0.21113713
136	0x3e279273	0.1636446
137	0x3db6ce51	0.089260705
138	0x3dc41b0e	0.09575473
139	0x3e715cd0	0.23570561
140	0xbd586cb0	-0.052838027
141	0xbda40ba3	-0.08010032
142	0xbcdd7f91	-0.027038367
143	0x3a5262b5	0.0008025573
144	0x3c9afe96	0.018920224
145	0xbc823880	-0.015896082
146	0xbaf71424	-0.0018850607
147	0xbe5ea2a5	-0.21741731
148	0x3e38518e	0.1799986
149	0xbdad6e36	-0.08468287
150	0xbbbe0c95	-0.0057998397
151	0xbd80a242	-0.06280948
152	0x3ce71e1e	0.028212603
153	0x3e301fa3	0.17199568
154	0x3e355bb6	0.17710766
155	0x3d5b1f10	0.05349642
156	0xbe3c7e07	-0.1840745
157	0x3e5b537d	0.21418567
158	0x3e1d8b00	0.15385056
159	0x3d92abf9	0.071617074
160	0xbf356554	-0.7085774
161	0xbea92a3d	-0.33040038
162	0xbea88bca	-0.3291915
163	0xbeb2735b	-0.34853634
164	0xbea72f44	-0.32653248
165	0xbed72825	-0.42022815
166	0xbf19a620	-0.6001911
167	0xbf004dca	-0.50118697
168	0xbe0aed76	-0.13567147
169	0xbe67c87b	-0.22635071
170	0xbf1670f3	-0.58766097
171	0xbe53e4ad	-0.20692702
172	0xbd322896	-0.043495737
173	0xbe1df9d4	-0.15427333
174	0xbea659bc	-0.32490337
175	0xbeec0efc	-0.46105182
176	0xbd3e29be	-0.046426527
177	0x3d298ea7	0.04139581
178	0x3e87ddc6	0.26536387
179	0x3e254648	0.16140091
180	0xba3ef177	-0.0007283906
181	0x3d1b9e65	0.037992854
182	0x3e455ffa	0.19274893
183	0x3e146155	0.14490254
184	0x3d3420de	0.043976657
185	0xbccc2302	-0.024919037
186	0xbe219898	-0.15780866
187	0xbc30ca81	-0.010790468
188	0xba9da85d	-0.0012028326
189	0x3d581094	0.052750185
190	0xbe09847d	-0.13429447
191	0x3d24baea	0.040217318
192	0x3d9520de	0.072816595
193	0xbcc41f73	-0.023940777
194	0xbda3925a	-0.07986899
195	0xbd88c58b	-0.06678303
196	0x3db3a263	0.08771207
197	0xbe3d501a	-0.18487588
198	0xbe860e41	-0.2618275
199	0xbe212707	-0.15737544
200	0x3dc70986	0.09718613
201	0xbe64f203	-0.22357945
202	0xbdf0c30b	-0.117559515
203	0xbe52a19b	-0.2056946
204	0x3d9d8d5d	0.076929785
205	0xbdc15931	-0.0944084
206	0xbe54ab5d	-0.20768495
207	0xbe0aea99	-0.13566054
208	0xbe87de57	-0.2653682
209	0xbd46851f	-0.048466798
210	0x3da869d7	0.08223312
211	0xbe1ae186	-0.15125093
212	0xbd51e744	-0.051245943
213	0xbe2e05af	-0.16994356
214	0xbdf56627	-0.11982375
215	0xbdbe9665	-0.09306029
216	0x3e53cb08	0.20682919
217	0xbd418f5d	-0.047255863
218	0xbc80e6d1	-0.015735062
219	0x3dc32f43	0.09530499
220	0x3e15f6bd	0.14644904
221	0x3e235d78	0.15953624
222	0x3cbcfeb4	0.02307067
223	0x3dc01e72	0.09380807
224	0x3d8db6e0	0.06919646
225	0x3d190626	0.03735938
226	0xbe8b0736	-0.2715394
227	0xbeac303b	-0.33630547
228	0x3eb4fd31	0.3534942
229	0xbd6bc7b0	-0.057563484
230	0xbddb25f2	-0.10700597
231	0xbee12c43	-0.43979082
232	0xbc3520fb	-0.011055226
233	0xbd0aec98	-0.03391704
234	0xbd3487d4	-0.04407485
235	0xbdd5e191	-0.10443414
236	0xbe9ad4fa	-0.30240613
237	0xbe9af44d	-0.30264512
238	0x3d1ef61b	0.038808923
239	0x3e1153e9	0.14192165
240	0xbdc8d019	-0.098053165
241	0x3e11177c	0.14169115
242	0xbd8ccb3b	-0.06874701
243	0xbd0d4b30	-0.034495533
244	0xbd85afa5	-0.06527642
245	0x3dc95711	0.0983106
246	0x3daef290	0.08542359
247	0x3e662a37	0.22477041
248	0xbe31b875	-0.17355521
249	0xbdcac8ec	-0.09901604
250	0xbe148edb	-0.1450762
251	0xbd62175d	-0.055198062
252	0xbea508e1	-0.32233337
253	0xbe88822b	-0.2666181
254	0xbe8ca076	-0.27466172
255	0xbdf61c87	-0.1201716

fc1.bias f4 [10]
0	0xbdaa74d9	-0.08323068
1	0xbf27f144	-0.6560252
2	0xbf0a3e8f	-0.54001707
3	0x3ea5605e	0.32300085
4	0x3f08fcff	0.5351104
5	0x3eeba010	0.46020555
6	0x3e64cc92	0.22343662
7	0xbef8e295	-0.48610368
8	0x3dd77090	0.105195165
9	0xbd34664d	-0.044042874
